results/april.pt (torch, 3351 bytes, 6 tensors)

fc1.weight f4 [12, 18]
000000 e0 a0 0f 3d b1 10 86 be 21 7d aa be 7a 3e 48 bf
       0.03506553 -0.2618461 -0.3329859 -0.7822033
000010 cc 67 c4 be 70 d2 5b 3d 33 65 14 3f 3d e8 bd 3f
       -0.3836044 0.053667486 0.5796692 1.4836498
000020 33 f0 23 bf ca 63 80 bf ce 64 34 be ff 3c 73 bf
       -0.6403839 -1.0030453 -0.17616579 -0.9501495
000030 87 74 5c 3f 6e 53 25 bf c8 c6 72 3e 29 1f 85 be
       0.86115307 -0.6458043 0.23708642 -0.26000336
000040 48 04 ad ba 29 95 15 3f 27 e1 24 c1 ab 35 ee be
       -0.0013200128 0.58430725 -10.304969 -0.4652532
000050 8d 32 0c bf 62 77 70 bf 2d 05 71 bf f8 2b 53 bc
       -0.54764634 -0.93932164 -0.9414852 -0.012888901
000060 fc 41 8d 3f 95 7e 91 3f af 2a 65 bf fb 52 6f bf
       1.1035762 1.1366755 -0.89518255 -0.93485993
000070 96 57 17 bf 1c 97 6f bf ca 84 91 3f 18 44 71 bf
       -0.5911802 -0.9358995 1.1368649 -0.9424453
000080 da 65 ff 3d 62 f1 6f bf d8 16 ca bd 10 42 d4 3e
       0.124705985 -0.93727696 -0.09867638 0.41456652
000090 28 c5 97 40 54 b4 22 bf 52 07 7b c0 76 8b 98 bf
       4.742817 -0.6355641 -3.9223218 -1.191756
0000a0 21 78 66 c0 dc ac 41 3c f2 18 0a 3f a6 7c c5 3f
       -3.601082 0.011820998 0.53944314 1.5428665
0000b0 41 dc 88 bf 47 c8 92 bf a2 80 45 c0 ae 1a 98 bf
       -1.0692216 -1.146737 -3.0859761 -1.1883142
0000c0 ce ed 49 3f 79 92 96 bf 81 f2 d9 3d 00 09 e7 be
       0.78878486 -1.176345 0.10641957 -0.45124054
0000d0 84 39 ce bd cc ea 0a 3f 88 83 fe c0 02 75 32 bd
       -0.10069564 0.5426452 -7.953556 -0.04356862
0000e0 ac 54 5f be 78 12 4d bd 01 c5 3b be 61 6c 8b 3e
       -0.21809644 -0.05006644 -0.1833687 0.27231124
0000f0 e5 25 1b bf ec 7e c6 3f 9d 37 47 bd a3 71 40 3f
       -0.606047 1.5507483 -0.04863702 0.75173396
000100 78 d1 6a be 33 49 2f bd 41 d0 67 bf 43 73 7c bd
       -0.22931468 -0.042794418 -0.90552145 -0.06163336
000110 e4 d4 90 be 8c 22 2f bd e4 8c 58 bd 15 83 e4 3e
       -0.28287423 -0.042757556 -0.05286874 0.44631258
000120 5e f4 41 3e 76 86 65 be 6e a2 92 be 22 96 35 bf
       0.18940875 -0.22414574 -0.2863955 -0.7093221
000130 d8 16 b9 be a7 ee f3 bc 31 38 0e 3f db 9a cb 3f
       -0.3615024 -0.029776884 0.5555449 1.5906633
000140 8d d2 5e bf f2 99 82 bf 5d 0b 83 be dd df 5e bf
       -0.87040025 -1.020323 -0.25594607 -0.8706034
000150 28 45 51 3f 87 f8 29 bf 22 5c 58 3e 9c 83 3e be
       0.8174615 -0.6639485 0.21128896 -0.18604892
000160 c0 5f f6 bc 0e 93 2f 3f af df e2 3d c1 01 bb be
       -0.030074954 0.6858376 0.110778205 -0.36524776
000170 7e b8 6a be 9c 4f 3a bf c6 72 9f be 7e f5 88 3d
       -0.2292194 -0.72777724 -0.31142253 0.06687449
000180 bf 35 08 3f 4a 0a ca 3f 0d 26 5a bf 56 66 92 bf
       0.5320701 1.578439 -0.8521431 -1.143748
000190 61 19 98 be d5 09 9a bf ca 09 4f 3f 16 d7 28 bf
       -0.29706863 -1.203425 0.8087431 -0.65953195
0001a0 e2 6c da 3d 1d f5 4c be f4 04 2a 3c 44 c7 1a 3f
       0.10665299 -0.20015378 0.0103771575 0.60460305
0001b0 40 02 42 3e 6e 59 9d 3e 25 79 89 3e db a3 35 3f
       0.18946171 0.30732292 0.26850238 0.7095315
0001c0 3a ad cd 3e 42 0e 90 3d b4 bf 26 bf 8e 97 ae bf
       0.40171224 0.070339695 -0.65136266 -1.3640001
0001d0 72 8e 11 3f 1d 31 93 3f ae 25 91 3e cd 36 65 3f
       0.5685798 1.1499363 0.2834906 0.89536744
0001e0 49 99 59 bf 5e d3 07 3f 38 7b 84 be 0f 2d 10 3e
       -0.8499952 0.53056896 -0.25875258 0.14079688
0001f0 c8 68 0a 3e c7 b7 35 bf 2d 5c af 3d 26 5b 9b be
       0.13516533 -0.70983547 0.08562503 -0.30342978
000200 7f 17 8a be 93 8c 32 bf 3b 0d 8b be d5 88 0c 3d
       -0.2697105 -0.6974575 -0.27158532 0.03431018
000210 c0 ca 09 3f b3 2e b0 3f 9b db 2e bf 3e 17 78 bf
       0.53824997 1.3764251 -0.6830384 -0.96910465
000220 8e aa 6d be e9 35 70 bf 26 a3 6a 3f 20 fa 1e bf
       -0.23209593 -0.9383226 0.91655195 -0.6210041
000230 71 4f 86 3e 82 d7 30 be 3e a6 d7 bc d8 c4 32 3f
       0.26232484 -0.1726971 -0.026324388 0.6983161
000240 bb f7 9e 3d 0d 81 5f be dc 11 89 be c3 f4 38 bf
       0.077620946 -0.21826573 -0.26771438 -0.72248477
000250 22 72 a1 be 6f b5 8e 3d 40 c7 11 3f eb 1e c1 3f
       -0.3153239 0.069681995 0.56944656 1.508756
000260 21 39 0e bf 6c 9c 98 bf 79 41 5e be ff 71 67 bf
       -0.5555592 -1.1922736 -0.21704663 -0.9040832
000270 f2 5c 59 3f a7 99 22 bf 74 60 55 3e c3 79 7e be
       0.8490745 -0.63515705 0.20837575 -0.24851136
000280 14 06 75 bd 0d e0 19 3f 6f 1b 79 40 ba 0a 95 be
       -0.05982025 0.601075 3.8922994 -0.29109746
000290 7b d9 43 c0 5e 05 90 bf 74 98 4a c0 70 9b b0 3d
       -3.060149 -1.1251638 -3.165555 0.08623397
0002a0 25 45 0a 3f c1 0c d3 3f b4 de 8c bf c5 96 81 bf
       0.54011756 1.6488267 -1.1005464 -1.0124136
0002b0 ff c4 2b c0 87 98 8f bf 5f 40 5a 3f 08 09 82 bf
       -2.6838987 -1.1218423 0.8525447 -1.0159006
0002c0 c3 39 39 3e 21 61 76 be 28 eb 44 bd a7 a7 2d 3f
       0.1808844 -0.24060489 -0.048075825 0.6783394
0002d0 10 96 01 bb 7f 89 4c be 61 56 96 be 80 3a 3d bf
       -0.0019773282 -0.19974326 -0.29362777 -0.7391739
0002e0 a6 1f 8a be 40 33 6d 3d 0b 46 23 3f 45 26 b8 3f
       -0.2697727 0.057910204 0.6377875 1.4386679
0002f0 6e de 26 bf 84 6a 70 bf 87 23 6f be aa 32 70 bf
       -0.6518315 -0.9391253 -0.23353396 -0.9382731
000300 51 6e 4f 3f f1 a1 16 bf 22 50 7f 3e c9 cf 2b be
       0.81027704 -0.5884085 0.24932912 -0.16778482
000310 f7 3f 02 be 2c 50 1c 3f 9c 6b c5 c0 d1 e4 3d be
       -0.12719713 0.6105983 -6.169386 -0.18544318
000320 68 02 c0 be fa 37 9c 3f 36 21 9e be 45 67 97 3d
       -0.37501836 1.2204583 -0.30884713 0.07392744
000330 52 ed 28 bf c9 6c 89 3f 7d 7f 34 3e c3 f3 05 be
       -0.6598712 1.0736324 0.17626758 -0.13081269
000340 a4 60 c4 be a5 c4 8f 3f 3d a8 76 bf 81 03 b6 3d
       -0.3835498 1.1231886 -0.9635046 0.08887387
000350 96 6e 4a 3d 0f 5f 38 be 0c 4f 3b be 22 5a 35 3f
       0.04942187 -0.18005012 -0.18291873 0.70840657

fc1.bias f4 [12]
000000 2d ff 5a 3f ee c1 6d 3f d6 48 62 3e fc ee f8 3c
       0.8554562 0.9287404 0.22098097 0.030387394
000010 36 7c 4e 3f 78 d8 47 3f bf 36 44 bf 38 72 6a 3f
       0.8065828 0.7806468 -0.76646036 0.91580534
000020 9f f4 5b 3f 84 87 ac 3e 2d e3 69 3f 80 fe 21 3e
       0.8592014 0.3369714 0.9136227 0.1581974

fc2.weight f4 [6, 12]
000000 89 8d 88 3f c0 bf d5 c0 dc db 86 40 40 a4 cb c0
       1.0668193 -6.679657 4.2143383 -6.3638
000010 eb a4 9b 3f a7 8f 9c 3f fe 40 81 bf e3 3d 84 3f
       1.2159704 1.2231339 -1.0097959 1.0331386
000020 5f f0 83 3f f5 4a 48 40 0e e1 7d 3f 60 c2 93 c0
       1.030773 3.129575 0.9917153 -4.6174774
000030 6e 76 6e 3f 60 7c c6 c0 39 54 82 40 63 7f b3 c0
       0.9314946 -6.2026825 4.072781 -5.6093
000040 b5 0f 73 3f 91 38 64 3f 40 b8 56 bf 9f 53 3a 3f
       0.9494584 0.89148813 -0.83874893 0.72783846
000050 9e 3a 78 3f b6 35 39 40 d3 60 5e 3f 22 1a 67 c0
       0.9696444 2.8939033 0.8686649 -3.61097
000060 61 c6 ac bf 11 23 0e 40 22 4f 69 c0 e2 fc 68 40
       -1.349804 2.2208903 -3.645455 3.6404347
000070 1c e7 a8 bf c5 82 9f bf e3 3b 73 3f ca 5b ab bf
       -1.3195529 -1.2461783 0.95013255 -1.3387387
000080 e3 86 b9 bf 1a f4 2d c0 d8 48 d0 bf 0a b2 0e c1
       -1.4494289 -2.7180238 -1.627223 -8.918467
000090 1c f3 9b 3f ed ce c0 c0 8c af 83 40 c7 dc df c0
       1.2183566 -6.0252595 4.115179 -6.9957004
0000a0 79 e6 9a 3f 69 cb 88 3f 3b 97 a0 bf 98 d8 85 3f
       1.2101585 1.0687076 -1.2546152 1.0456724
0000b0 fa dc 98 3f 31 6e 3b 40 39 9f 98 3f 88 c4 99 c0
       1.1942437 2.9286005 1.1923591 -4.8052406
0000c0 0b 7b 0c c0 91 6b a1 3f a1 aa 5d c0 b7 38 c5 40
       -2.19501 1.2610952 -3.4635394 6.163173
0000d0 65 ac 0a c0 72 70 00 c0 8f 0b 79 40 68 5c 1a c0
       -2.1667721 -2.006863 3.8913305 -2.41189
0000e0 eb 3c 0f c0 9f 58 29 c0 7e dd 27 c0 4e 6a 9e c0
       -2.2380931 -2.646034 -2.6228938 -4.9504766
0000f0 d5 0c 94 3f 9d 26 c1 c0 a2 d4 84 40 74 7b dc c0
       1.1566416 -6.0359635 4.150956 -6.89007
000100 0c 37 83 3f 7f e7 85 3f cd 5a a3 bf da 1e 87 3f
       1.0251174 1.0461272 -1.2762085 1.055629
000110 e7 bf 90 3f 0a e6 34 40 91 c3 97 3f 40 f5 90 c0
       1.1308564 2.8265405 1.1856557 -4.5299377

fc2.bias f4 [6]
000000 ee 47 e3 3e c4 3c 0f 3f 2e 41 4a c0 88 78 86 3f
       0.44390815 0.55952096 -3.1602283 1.0505533
000010 7f 46 93 c0 2b 3e 84 3f
       -4.6023555 1.0331472

fc3.weight f4 [3, 6]
000000 d4 ee b8 40 96 c8 bb 40 7c 7e 50 c0 86 f7 a5 40
       5.779154 5.8682356 -3.25772 5.1864653
000010 3a 42 3d c0 71 e7 a9 40 13 15 3b be 31 10 29 3f
       -2.9571671 5.309502 -0.18269758 0.6604033
000020 3a 5f 44 40 c0 b4 64 be 3b 2b 0a 3f 03 f5 08 bc
       3.0683122 -0.22334576 0.53972214 -0.008359197
000030 3c 15 7f bf be 71 90 bf 24 fa e8 be 74 02 95 be
       -0.99641776 -1.1284711 -0.45503342 -0.29103434
000040 cd c6 09 c0 00 bc b5 be
       -2.1527588 -0.35494995

fc3.bias f4 [3]
000000 bc 4c 51 40 65 4a c9 3f f9 77 27 41
       3.2703085 1.5725828 10.46679
