results/august.pt (torch, 3351 bytes, 6 tensors)

fc1.weight f4 [12, 18]
-1.1644306 -0.0886591 -0.45704058 -0.47167194 -0.064687505 0.075811155 1.5089093 0.60667753
-0.6910587 -1.3159442 -0.806705 -0.7181539 1.2646432 -0.34023952 0.68541455 -0.010565445
-0.78593916 0.6463381 -1.064773 -0.07816403 -0.40183604 -0.88076246 -0.09412445 0.012395177
1.4881846 0.532827 -0.6862449 -1.2125237 -1.4272532 -0.8609577 1.2044892 -0.32474405
0.7058038 0.0312652 -0.8322201 0.55498236 -1.1781137 -0.029713694 -0.51039594 -0.45763385
-0.111871116 0.0665141 1.4395512 0.50186217 -0.6795894 -0.977619 -0.83617896 -0.72244084
1.2360613 -0.27992517 0.7535424 -0.005889817 -0.7245791 0.6431646 -1.1906012 -0.11424088
-0.42336404 -0.6102676 -0.04113341 -0.0053004036 1.4764652 0.60303915 -0.7017609 -0.9924565
-0.8114403 -0.6080123 1.2723279 -0.43145305 0.7831836 0.022595886 -0.75503486 0.6485094
-0.97377664 -0.08779601 -0.47555405 -0.90732056 -0.10072666 -0.0017020492 1.4989802 0.49643245
-0.75482506 -1.2267034 -1.7085911 -0.9433929 1.1917641 -0.5628929 0.63963807 0.04244484
-0.82702714 0.54685163 -8.446955 -0.18375428 -0.55431765 0.94530183 -0.099404015 0.13727994
1.4248786 0.5764594 0.71399397 0.62302184 -0.8566106 0.8599287 1.2462658 1.043304
0.5508939 -0.16802305 0.77619773 0.56875557 -0.9533964 -0.13507146 -0.47856775 -0.5797269
-0.055190347 0.14142181 1.5490203 0.6248226 -0.7622336 -1.0715932 -1.7557886 -0.68181753
1.2888669 -0.3428848 0.706476 0.024317361 -0.670384 0.58626956 -1.063537 -0.11480606
-0.48663732 -0.5227802 -0.1500666 0.027711442 1.5013235 0.5753319 -0.7172637 -0.9215439
-1.6500717 -0.58979607 1.1855726 -0.3120732 0.74616474 0.034557305 -0.76123315 0.59356713
-8.314229 -0.2723125 -0.72001964 0.92824966 -0.19648294 0.066478126 1.326487 0.4881088
0.7632361 0.5573603 -0.97898966 0.845677 1.2322731 0.9822078 0.4744706 -0.25272208
0.73576474 0.48748294 -1.1386948 -0.13000922 -0.4472711 -0.5288452 -0.094376326 0.11481003
1.48173 0.6210529 -0.7954106 -1.212156 -0.7627664 -0.62239766 1.1701283 -0.4234262
0.7107354 0.03513918 -0.7543715 0.57170254 -1.127933 -0.033740915 -0.4394134 -0.56008863
-0.10034087 0.10924593 1.520261 0.5276181 -0.70059377 -1.0619581 -0.8065542 -0.6535437
1.183087 -0.44208032 0.69345564 0.03910346 -0.7817997 0.55280787 -1.2021836 -0.15411635
-0.4136688 -0.54635566 -0.047262806 0.06830618 1.5287907 0.59536165 -0.6550876 -1.0031158
-0.86242646 -0.59880805 1.2661477 -0.3469186 0.74428785 0.10876413 -0.7004885 0.55064327
00000000: 100c 95bf e792 b5bd 3901 eabe fc7e f1be
00000010: e27a 84bd e142 9b3d f123 c13f 384f 1b3f
00000020: 39e9 30bf dc70 a8bf 3884 4ebf efd8 37bf
00000030: d4df a13f e033 aebe 5477 2f3f b01a 2dbc
00000040: 4f33 49bf 6a76 253f 7b4a 88bf 7714 a0bd
00000050: 74bd cdbe a679 61bf 52c4 c0bd 2415 4b3c
00000060: d57c be3f 5a67 083f bfad 2fbf fa33 9bbf
00000070: 3cb0 b6bf b967 5cbf b42c 9a3f da44 a6be
00000080: 8faf 343f f00f 003d 600c 55bf 5313 0e3f
00000090: 6ecc 96bf 226a f3bc 4fa9 02bf fc4e eabe
000000a0: af1c e5bd 8b38 883d 3743 b83f 0a7a 003f
000000b0: 92f9 2dbf 3d45 7abf d30f 56bf e2f1 38bf
000000c0: 4237 9e3f 5a52 8fbe 28e8 403f 5eff c0bb
000000d0: 047e 39bf 6fa6 243f 9f65 98bf 1ff7 e9bd
000000e0: 2cc3 d8be 7f3a 1cbf 827b 28bd 02af adbb
000000f0: d0fc bc3f c660 1a3f 9aa6 33bf a111 7ebf
00000100: 8dba 4fbf b2a6 1bbf a4db a23f 6ae7 dcbe
00000110: b87e 483f 021b b93c f749 41bf b604 263f
00000120: 6d49 79bf 65ce b3bd d27b f3be 2946 68bf
00000130: c749 cebd 4b17 dfba 95de bf3f 652c fe3e
00000140: 373c 41bf 9e04 9dbf 1db3 dabf 3282 71bf
00000150: ba8b 983f c019 10bf 52bf 233f a4da 2d3d
00000160: 0db8 53bf 78fe 0b3f ba26 07c1 152a 3cbe
00000170: c3e7 0dbf 4dff 713f 5594 cbbd 1d93 0c3e
00000180: 6c62 b63f d892 133f 4fc8 363f 5c7e 1f3f
00000190: d54a 5bbf 4a24 5c3f a385 9f3f fc8a 853f
000001a0: 6207 0d3f 3c0e 2cbe e5b4 463f f799 113f
000001b0: c911 74bf 2c50 0abe d506 f5be fb68 14bf
000001c0: 460f 62bd e1d0 103e 4c46 c63f 60f4 1f3f
000001d0: be21 43bf f729 89bf aebd e0bf 988b 2ebf
000001e0: 97f9 a43f 998e afbe 9cdb 343f 3435 c73c
000001f0: 499e 2bbf c315 163f fb21 88bf 711f ebbd
00000200: 8728 f9be ecd4 05bf 0fab 19be 1b03 e33c
00000210: 5e2b c03f f448 133f 989e 37bf 4dea 6bbf
00000220: 8d35 d3bf e0fc 16bf d8c0 973f 0fc8 9fbe
00000230: a704 3f3f f68b 0d3d 2de0 42bf 04f4 173f
00000240: 1507 05c1 8b6c 8bbe 3553 38bf c5a1 6d3f
00000250: d332 49be af25 883d 53ca a93f 66e9 f93e
00000260: 7163 433f 2aaf 0e3f 119f 7abf 4a7e 583f
00000270: 20bb 9d3f f871 7b3f cfed f23e ca64 81be
00000280: 145b 3c3f 5d97 f93e c0c0 91bf 2321 05be
00000290: b800 e5be 6662 07bf 6048 c1bd 8521 eb3d
000002a0: 54a9 bd3f 53fd 1e3f 07a0 4bbf ee27 9bbf
000002b0: a944 43bf 7455 1fbf c4c6 953f 52cb d8be
000002c0: c1f2 353f 1aee 0f3d 7e1e 41bf 195b 123f
000002d0: 1c60 90bf ea33 0abd cbfa e0be f861 0fbf
000002e0: 847f cdbd 55bc df3d ea97 c23f fb11 073f
000002f0: 1d5a 33bf 3eee 87bf 567a 4ebf a44e 27bf
00000300: 656f 973f 5a58 e2be 4f86 313f f32a 203d
00000310: 0624 48bf d184 0d3f 27e1 99bf add0 1dbe
00000320: 66cc d3be f7dd 0bbf a596 41bd 1ce4 8b3d
00000330: 6aaf c33f 9f69 183f d2b3 27bf 1966 80bf
00000340: fbc7 5cbf 7c4b 19bf 2111 a23f 519f b1be
00000350: a689 3e3f babf de3d 3753 33bf f5f6 0c3f

fc1.bias f4 [12]
1.2776135 1.1845586 1.3141469 1.3007687 1.1673872 1.1246985 1.227279 1.2430795
1.1869516 1.2092361 1.2255363 1.318171
00000000: d788 a33f 9e9f 973f f735 a83f 977f a63f
00000010: f26c 953f 1ff6 8f3f 7a17 9d3f 3b1d 9f3f
00000020: 08ee 973f 40c8 9a3f 60de 9c3f d4b9 a83f

fc2.weight f4 [6, 12]
-3.3192072 -3.1294093 -3.5754542 -3.335382 -2.7042193 0.21174958 -3.1020696 -3.2608092
0.054683205 -3.0916522 -3.0753915 -3.4381008 -3.2952468 -3.1436558 -3.573713 -3.2242465
-2.6744604 0.36340305 -3.0164263 -3.367517 0.1134304 -3.0701447 -3.1819913 -3.4923234
1.8433226 1.7869737 1.6801397 1.7689371 1.6905822 -9.034277 1.7207808 1.8222156
-8.473164 1.7987865 1.8241757 1.7168937 -3.1451216 -3.1411648 -3.179557 -3.0233247
-2.2408288 -0.059321318 -2.856408 -3.1864054 -0.10042985 -3.1477156 -2.986364 -3.1333747
1.6422313 1.787294 1.6980343 1.7389925 1.6859572 -9.588382 1.6203448 1.8226894
-9.084044 1.6712627 1.7919922 1.5872475 1.7432066 1.8625987 1.8515998 1.7944003
1.7814705 -10.31562 1.8629782 1.8849266 -9.864712 1.8495289 1.9084945 1.8104378
00000000: e46d 54c0 3e48 48c0 3ed4 64c0 e676 55c0
00000010: ee11 2dc0 e2d4 583e 4f88 46c0 19b1 50c0
00000020: 7ffb 5f3d a1dd 45c0 37d3 44c0 d809 5cc0
00000030: 53e5 52c0 a831 49c0 b7b7 64c0 0e5a 4ec0
00000040: 5c2a 2bc0 f70f ba3e 210d 41c0 6685 57c0
00000050: 334e e83d 407d 44c0 bfa5 4bc0 3a82 5fc0
00000060: fff1 eb3f 8ebb e43f d10e d73f 886c e23f
00000070: ff64 d83f 668c 10c1 8c42 dc3f 5c3e e93f
00000080: 1492 07c1 a33e e63f 977e e93f 2cc3 db3f
00000090: ac49 49c0 d808 49c0 dd7d 4bc0 277e 41c0
000000a0: bd69 0fc0 e9fa 72bd 64cf 36c0 11ee 4bc0
000000b0: 2aae cdbd 2c74 49c0 9620 3fc0 3689 48c0
000000c0: a334 d23f 0dc6 e43f 3059 d93f 4e97 de3f
000000d0: 72cd d73f 036a 19c1 7567 cf3f e34d e93f
000000e0: 3f58 11c1 f0eb d53f 0060 e53f ed2a cb3f
000000f0: 6521 df3f a269 ee3f 3901 ed3f e9ae e53f
00000100: 3a07 e43f c80c 25c1 1276 ee3f 4645 f13f
00000110: dcd5 1dc1 5dbd ec3f 8c49 f43f 6dbc e73f

fc2.bias f4 [6]
-4.825201 -4.721745 1.2894874 -4.260787 1.1042662 1.0416995
00000000: 0c68 9ac0 8918 97c0 ec0d a53f 5e58 88c0
00000010: 9858 8d3f 6956 853f

fc3.weight f4 [3, 6]
-3.218833 -3.2111907 5.962012 -2.9193075 6.220208 6.4123616 0.9322413 0.9209074
0.07530829 1.0709924 0.15356416 -0.052786868 -3.1298168 -2.9440193 0.4152612 -2.812751
0.10300839 -0.13816002
00000000: 5c01 4ec0 2684 4dc0 cdc8 be40 efd5 3ac0
00000010: f20b c740 1132 cd40 5ea7 6e3f 96c0 6b3f
00000020: 3c3b 9a3d 4716 893f ec3f 1d3e 0b37 58bd
00000030: eb4e 48c0 d06a 3cc0 1e9d d43e 1d04 34c0
00000040: 10f6 d23d d279 0dbe

fc3.bias f4 [3]
3.9285595 1.9505208 5.9691453
00000000: 856d 7b40 aaaa f93f 3d03 bf40
