results/december.pt (torch, 3351 bytes, 6 tensors)

fc1.weight f4 [12, 18]
4.5153637 -0.018309638 -0.21430352 -0.78653634 0.039650746 0.13666521 0.84095246 0.62361664
-0.7238929 -2.0320103 -0.43690324 -0.74117845 0.4534538 -0.64974046 0.34774235 -0.0036937587
-0.25602302 0.902472 4.415808 -0.011540769 -0.23157384 -0.71702635 0.07854232 0.05136881
0.8205765 0.66615146 -0.70106286 -2.0084274 -0.38345596 -0.6745093 0.38215077 -0.6929346
0.3491704 0.054915655 -0.27179292 0.9220595 4.4253397 0.06646978 -0.18367004 -0.6493845
0.07596616 0.08984974 0.8489595 0.59833395 -0.65453506 -0.29699576 -0.40023887 -0.7045909
0.35831025 -0.59555346 0.32484895 0.059903327 -0.21839014 0.886462 -4.3620334 -0.116143465
0.2820269 0.815066 -0.0830934 -0.07854943 -0.94873506 -0.6331257 0.72234106 0.44525632
0.37886694 0.8446226 -0.36724856 0.76148015 -0.30095187 0.08395891 0.33578494 -0.99707055
4.397815 0.11455977 -0.22441298 -0.64171004 0.07915809 0.084403075 0.9343053 0.57196677
-0.65091884 -0.26620477 -0.35932246 -0.74336827 0.42623356 -0.6271793 0.3307686 0.024745487
-0.28597167 0.92653143 4.3989115 0.084715225 -0.19890034 -0.6572131 0.03534846 -0.014941854
0.91234374 0.5611549 -0.59348476 0.13479947 -0.33699906 -0.72634906 0.40548027 -0.629215
0.35954133 0.054556888 -0.22102405 0.96991175 7.4245696 0.29412618 0.36724707 0.36292976
0.39276367 -0.87603885 -1.090235 -2.604212 0.36343846 0.34055343 0.24152319 0.5535591
-1.3125621 0.25607264 -0.6951653 0.42869523 0.48853186 -1.1113116 4.5477357 0.05937952
-0.2415544 -0.7717934 0.013608627 0.122919455 0.9219719 0.62790155 -0.75433135 -1.9710461
-0.44805261 -0.76967657 0.41402888 -0.7560086 0.29370424 0.0270317 -0.29888493 1.0227029
4.43261 0.020290256 -0.18703845 -0.74198216 0.0069826874 -0.01924602 0.87902814 0.6082312
-0.6013611 -0.22155532 -0.34063113 -0.7381768 0.43337268 -0.6351477 0.38852376 0.07382939
-0.275589 0.9318222 4.2428336 0.19344024 -0.20164412 -0.623339 -0.044913657 -0.009288212
0.8603586 0.5945506 -0.5575291 0.0221527 -0.23789905 -0.72838837 0.33558977 -0.60000086
0.41783896 0.082285896 -0.27942887 0.82545304 4.426332 0.06482232 -0.25622287 -0.7434094
0.08132502 0.11397578 0.84284973 0.59121513 -0.62693405 -1.9806399 -0.39898884 -0.7230895
0.36860776 -0.61169225 0.33697942 -0.013288462 -0.27961355 0.92188966 -12.744021 -0.4774844
-0.5795768 -0.27867278 -1.1809663 1.323984 0.22304684 1.3809261 -0.15394899 0.2098997
-0.38510728 -0.5660054 1.3788377 -0.87708557 0.40951473 -1.1761613 0.3434147 1.3859112
00000000: dc7d 9040 18fe 95bc 6272 5bbe 725a 49bf
00000010: d268 223d f7f1 0b3e a948 573f 57a5 1f3f
00000020: 0c51 39bf 750c 02c0 c8b1 dfbe dfbd 3dbf
00000030: 192b e83e 6455 26bf 490b b23e fd12 72bb
00000040: 7315 83be 6808 673f 4d4e 8d40 7e15 3dbc
00000050: b121 6dbe 0a8f 37bf ccda a03d 1a68 523d
00000060: 4d11 523f e788 2a3f db78 33bf 138a 00c0
00000070: 5754 c4be a4ac 2cbf 44a9 c33e 2964 31bf
00000080: 76c6 b23e 3def 603d 7128 8bbe 170c 6c3f
00000090: 629c 8d40 4f21 883d 0014 3cbe 103e 26bf
000000a0: 2594 9b3d 2403 b83d 6955 593f 6a2c 193f
000000b0: 9c8f 27bf d40f 98be 1cec ccbe 1260 34bf
000000c0: 7174 b73e 3176 18bf 9a52 a63e 315d 753d
000000d0: aaa1 5fbe 2cef 623f c795 8bc0 a0dc edbd
000000e0: d465 903e 2aa8 503f df2c aabd 86de a0bd
000000f0: 4de0 72bf 8714 22bf 58eb 383f a3f8 e33e
00000100: d9fa c13e 3039 583f 0108 bcbe 5df0 423f
00000110: 5d16 9abe a6f2 ab3d 01ec ab3e 0440 7fbf
00000120: e7ba 8c40 509e ea3d 84cc 65be 1c47 24bf
00000130: a31d a23d 85db ac3d a22e 6f3f 6a6c 123f
00000140: 9ea2 26bf fe4b 88be 1df9 b7be 624d 3ebf
00000150: 493b da3e d38e 20bf 805a a93e 0cb7 ca3c
00000160: e16a 92be 2a31 6d3f e2c3 8c40 2d7f ad3d
00000170: 88ac 4bbe 1e3f 28bf 8cc9 103d aece 74bc
00000180: 5c8f 693f d9a7 0f3f 9eee 17bf df08 0a3e
00000190: 248b acbe 03f2 39bf 1c9b cf3e 3c14 21bf
000001a0: cd15 b83e 0b77 5f3d 2154 62be 234c 783f
000001b0: 1396 ed40 b597 963e cf07 bc3e eed1 b93e
000001c0: 5218 c93e 1544 60bf d28c 8bbf 69ab 26c0
000001d0: 9b14 ba3e 055d ae3e db51 773e 0db6 0d3f
000001e0: 0902 a8bf f41b 833e 5af6 31bf f17d db3e
000001f0: d920 fa3e 753f 8ebf 0d87 9140 f137 733d
00000200: 095a 77be 4194 45bf b8f6 5e3c 32bd fb3d
00000210: 5a06 6c3f 28be 203f dc1b 41bf 3d4b fcbf
00000220: 2767 e5be 8609 45bf 98fb d33e c889 41bf
00000230: 6760 963e 9571 dd3c 7207 99be eee7 823f
00000240: f1d7 8d40 c037 a63c 0287 3fbe 8bf2 3dbf
00000250: 07cf e43b d4a9 9dbc fd07 613f 0ab5 1b3f
00000260: cdf2 19bf 66df 62be 3467 aebe 28f9 3cbf
00000270: 06e3 dd3e 0a99 22bf 96ec c63e dd33 973d
00000280: 001a 8dbe e68b 6e3f 4bc5 8740 3315 463e
00000290: cc7b 4ebe 2593 1fbf 62f7 37bd 962d 18bc
000002a0: 7640 5c3f 7834 183f 3aba 0ebf 9479 b53c
000002b0: cf9b 73be a977 3abf 6cd2 ab3e a899 19bf
000002c0: fdee d53e 8285 a83d 4d11 8fbe e450 533f
000002d0: 83a4 8d40 91c1 843d a52f 83be 1450 3ebf
000002e0: bb8d a63d 226c e93d 00c5 573f e059 173f
000002f0: c07e 20bf 9c85 fdbf 4448 ccbe 651c 39bf
00000300: 28ba bc3e dd97 1cbf 9188 ac3e d9b7 59bc
00000310: 8229 8fbe f600 6c3f 83e7 4bc1 d678 f4be
00000320: 255f 14bf 33ae 8ebe e729 97bf 4f78 a93f
00000330: 6466 643e 30c2 b03f cea4 1dbe f2ef 563e
00000340: c82c c5be bbe5 10bf c17d b03f ae88 60bf
00000350: eaab d13e 748c 96bf 0dd4 af3e 8a65 b13f

fc1.bias f4 [12]
1.0971367 1.1118244 1.1433631 -1.0302932 1.0914433 1.0523272 -0.3774975 1.0529313
1.0449142 1.1521648 1.0644857 1.1583672
00000000: fa6e 8c3f 4350 8e3f b959 923f a6e0 83bf
00000010: 6ab4 8b3f a8b2 863f 5a47 c1be 74c6 863f
00000020: c0bf 853f 237a 933f 1141 883f 6045 943f

fc2.weight f4 [6, 12]
-2.3134468 -2.4061341 -2.3881576 2.2770922 -2.3515277 -2.4953616 7.930239 -2.4400206
-2.480958 -2.3947153 -2.3272154 6.063807 -2.3819005 -2.3372273 -2.3783898 2.4428067
-2.505459 -2.6688852 5.1642733 -2.4733632 -2.6449702 -2.385814 -2.5125566 7.78199
0.17375813 0.11321859 0.044104934 -0.09548645 0.020598251 0.011987394 12.467732 0.20934218
0.05448976 -0.17101724 0.1016165 3.0026636 2.3454714 2.2995005 2.2181304 -2.2334058
2.2471273 2.289932 -8.567663 2.3127804 2.41299 2.1584466 2.3496432 -7.497731
-2.65484 -2.5197597 -3.0002167 2.689204 -3.1049473 -3.701978 -0.95253664 -2.7856762
-3.3520458 -3.108772 -2.991628 9.662802 2.3357916 2.285118 2.1656156 -2.2407646
2.3203254 2.3697078 -8.168734 2.397274 2.3950834 2.2606544 2.3195066 -7.869328
00000000: 830f 14c0 1afe 19c0 93d7 18c0 e1bb 1140
00000010: 6e7f 16c0 01b4 1fc0 85c4 fd40 4c29 1cc0
00000020: 04c8 1ec0 0443 19c0 19f1 14c0 b50a c240
00000030: 0f71 18c0 2295 15c0 8a37 18c0 f256 1c40
00000040: 7159 20c0 04cf 2ac0 ba41 a540 954b 1ec0
00000050: 3147 29c0 2db1 18c0 bacd 20c0 1006 f940
00000060: a7ed 313e 26df e73d 60a7 343d 668e c3bd
00000070: aabd a83c c666 443c d57b 4741 cc5d 563e
00000080: a830 5f3d 251f 2fbe 501c d03d a42b 4040
00000090: 341c 1640 042b 1340 d9f5 0d40 1ff0 0ec0
000000a0: efd0 0f40 3f8e 1240 2615 09c1 9804 1440
000000b0: 6e6e 1a40 fd23 0a40 8e60 1640 6aed efc0
000000c0: e6e8 29c0 be43 21c0 8d03 40c0 eb1b 2c40
000000d0: 75b7 46c0 35ed 6cc0 71d9 73bf 8548 32c0
000000e0: eb87 56c0 1ff6 46c0 d576 3fc0 d69a 1a41
000000f0: 9c7d 1540 603f 1240 7299 0a40 b068 0fc0
00000100: 3680 1440 4ba9 1740 22b3 02c1 f06c 1940
00000110: 0c49 1940 90ae 1040 cc72 1440 89d1 fbc0

fc2.bias f4 [6]
-1.504553 -0.20965241 -1.3244951 1.0885444 1.7822505 0.9304161
00000000: 3195 c0bf 1faf 56be 0e89 a9bf 6c55 8b3f
00000010: c920 e43f c02f 6e3f

fc3.weight f4 [3, 6]
-4.4582887 -4.273728 -5.537293 5.2710857 -3.3592796 5.2091446 2.8464794 0.20784986
-0.01565034 -0.20906605 -3.2236362 0.25619853 -0.85914385 0.49236867 -2.529226 0.6208513
2.825453 0.35927996
00000000: 4daa 8ec0 61c2 88c0 8131 b1c0 bcac a840
00000010: 70fe 56c0 50b1 a640 b82c 3640 98d6 543e
00000020: 2435 80bc 6915 56be 0e50 4ec0 742c 833e
00000030: daf0 5bbf bf17 fc3e d7de 21c0 1cf0 1e3f
00000040: 39d4 3440 8bf3 b73e

fc3.bias f4 [3]
0.42731544 1.5426991 13.707163
00000000: 17c9 da3e 2a77 c53f 8a50 5b41
