results/february.pt (torch, 3351 bytes, 6 tensors)

fc1.weight f4 [12, 18]
00000000: 8f3b c040 42f5 633e 536f 46bd e07d 1fbe
00000010: 962b 5cbe d876 663c 8b77 cc3e c7ef 2fbf
00000020: 0ec3 58be 5ceb a33e 06db 33be 2bb7 f6be
00000030: 5390 803e 541a 573c ecb0 063f 8157 e33d
00000040: 5e64 71be efa4 9d3e 9f37 c040 46ed 843e
00000050: 9a08 343d 8335 4fbe d17a 3fbe 52d8 423d
00000060: 1ff9 e03e aefd 22bf 8721 83be 1aa8 c83d
00000070: 71ac 6bbe b559 9abe 29ad 4f3e 35e7 f3bd
00000080: 5cf8 b33e 02ac e73d 221a 20be 3eb0 cd3e
00000090: 2c6e 23c1 ad4b 353f fd73 b7be bf8e e63d
000000a0: e130 e2be 093e 0c3f 61ee 9a3f 7a46 47be
000000b0: 50f5 e8bc 5f35 0c3e 6285 bdbe 93ea 18bf
000000c0: 67fa bfbe 7182 2b3d 2dd8 993f 5808 353e
000000d0: 3155 5d3e d37f d33f 4c59 c440 54e1 a83e
000000e0: ab54 343d 2f43 96be f419 85bd cf22 0dbe
000000f0: 64d1 e73e 9a7e 473f 0575 9ebe 96d8 c93e
00000100: 693e a7be 6c76 a5be 41c1 c73e 67da 21bd
00000110: 5842 0b3f 0d1c 423e dcd3 03bf ad5a cc3e
00000120: fd5e c140 badc 0e3e 28b0 33bd f349 1abe
00000130: b54a a0bd 8528 62bd 8268 c53e d206 bdbf
00000140: a524 c8be 617c d5bf 4bcd 69be b818 99be
00000150: 6fa8 653e 63ea f2bd 029f df3e 7060 f33d
00000160: c6e3 83be dede d83e 7514 c140 62bf 983e
00000170: d0ff 9abd 2795 50be 4d52 b7bd 2642 ebbb
00000180: 3996 e43e 17b7 2b3f 0a81 30be d8b9 ad3e
00000190: 3ed9 b3be c4ee c8be b02c 6b3e e07f f5bd
000001a0: 3d74 c33e 1232 e13d 6100 2cbe d8b4 a63e
000001b0: 9c34 c640 d042 7f3e c4f4 81bd 7f70 14be
000001c0: f268 55be 6e55 093d 36da d23e f384 0abd
000001d0: be45 5fbe c140 ccbf d71f 98be 1e24 8abe
000001e0: d7de 903e cdcb 5fbe 3b9a de3e cc97 7c3e
000001f0: 835f 14be c6a3 e53e 4c71 c840 6586 3d3e
00000200: ce20 833d 2088 96be 3be1 09be b432 2abd
00000210: 3672 e93e 1289 893f 4cd7 bdbe dc55 fc3e
00000220: d588 7fbe 7ba2 39be a5a1 bb3e 1005 90be
00000230: d106 f33e cd12 ff3d 221e 023c b724 023f
00000240: 6fed c240 9f43 af3e 2525 a03d 5156 90be
00000250: 5b28 b8bd 428d 22be 9541 d43e 5ed2 053f
00000260: 3ea2 99be f3b2 0a3f abe3 92be b3d5 d5be
00000270: 9762 853e 7be6 e03b 5a27 073f 7723 3b3e
00000280: cf0b 5bbe 9bec 853e a230 e440 1ef8 67bf
00000290: bde0 fc3e 1473 b93e e578 bb3e 8dcd adbe
000002a0: d715 ddbf 3f5f 79bf 034c be3e fa9e e63e
000002b0: e192 cb3e fa36 353f b4a8 f0be 3258 8f3c
000002c0: 349b 80bf 8149 cbbe 51c4 f23e f95e e0bf
000002d0: b545 c740 41ba 063e b566 133d ab80 5ebe
000002e0: 8fb5 42be deee 2fbe 4727 f83e e32e 57be
000002f0: 9c29 bebe 59e2 a63e 16ac bbbe d1f1 dfbe
00000300: 0e8d b53e 1054 57be 8c3a fd3e def2 033e
00000310: 43a7 94be 5dc4 de3e da21 bf40 b47a 33bf
00000320: 1509 ff3e 0871 de3e b1ee ab3e 40d9 afbe
00000330: a54f a4bf 8022 d93f 9bcb eb3e 518e ab3f
00000340: f493 343d 69b9 d03d a131 78be f153 4f3e
00000350: dc20 2fbf e1c7 8fbe fad7 053e f205 a5bf
6.0072703 0.22261527 -0.04844601 -0.15575361 -0.21501002 0.0140664205 0.39934954 -0.68725246
-0.21168157 0.32015502 -0.1756402 -0.4818662 0.2511011 0.013128836 0.5261371 0.111006744
-0.23573443 0.30789897 6.0067897 0.25962275 0.043953516 -0.20235257 -0.18699194 0.04756958
0.43940064 -0.63668334 -0.25611517 0.09797688 -0.23015 -0.30146566 0.20280899 -0.119093336
0.3515042 0.11312105 -0.15634969 0.40173525 -10.214397 0.708186 -0.3583068 0.112576954
-0.44177917 0.5478216 1.2103997 -0.19460478 -0.028437287 0.13692234 -0.37015826 -0.5973293
-0.3749573 0.041872445 1.2019097 0.17678964 0.21614529 1.6523384 6.1359005 0.32984412
0.04402606 -0.29348132 -0.06499091 -0.1378281 0.4527694 0.77927554 -0.30948654 0.39423054
-0.32664803 -0.3231691 0.3901463 -0.039514925 0.5439811 0.18956013 -0.51495147 0.3991293
6.0428452 0.13951388 -0.043869168 -0.15067272 -0.07826749 -0.055214424 0.38556296 -1.4767706
-0.39090458 -1.6678582 -0.2283222 -0.2990167 0.22427534 -0.11861112 0.43676 0.11883628
-0.25759715 0.42357534 6.033747 0.29833513 -0.075683236 -0.20369397 -0.089512445 -0.0071795164
0.4464586 0.6707625 -0.17236724 0.3393085 -0.3512668 -0.39244664 0.22966266 -0.11987281
0.3817462 0.10995878 -0.1679702 0.32559848 6.193922 0.2492783 -0.063455135 -0.14496039
-0.20840815 0.033528738 0.41182107 -0.033818197 -0.21803948 -1.5957261 -0.29711792 -0.2698068
0.28295013 -0.21855088 0.43477044 0.24667281 -0.1448956 0.44851512 6.26383 0.18508299
0.064027414 -0.2940073 -0.13464825 -0.04155226 0.4559495 1.0744956 -0.3707832 0.49284256
-0.24954541 -0.18128388 0.36646762 -0.28128862 0.47466138 0.12454758 0.007941755 0.5083727
6.0914836 0.34231278 0.07819585 -0.28190854 -0.08992072 -0.15874198 0.41456285 0.5227412
-0.30006593 0.54179305 -0.28689322 -0.41764602 0.2605178 0.006863413 0.5279442 0.18275248
-0.21391223 0.26157078 7.1309366 -0.9061297 0.49390212 0.3622061 0.36615673 -0.33945885
-1.727229 -0.9741096 0.37167367 0.45043164 0.39760497 0.7078701 -0.4700371 0.01749811
-1.0047364 -0.39704517 0.47415403 -1.7528983 6.227259 0.13156988 0.03598662 -0.2172877
-0.19014572 -0.17180964 0.48467466 -0.2101398 -0.3714112 0.32594565 -0.3665473 -0.4373918
0.3545918 -0.21028161 0.4945873 0.12885615 -0.2903386 0.43509188 5.9728823 -0.70109105
0.49811617 0.4344561 0.33580545 -0.34345436 -1.2836806 1.6963654 0.46053776 1.3402807
0.04408641 0.10191614 -0.24237682 0.20246865 -0.68409514 -0.28082183 0.1307067 -1.2892439

fc1.bias f4 [12]
00000000: 4355 253f 76a2 1e3f 492b 553f b9e3 fa3e
00000010: f790 233f a148 163f 4617 093f 2e03 ea3e
00000020: 259e 0d3f e3f9 d9be 2eb3 223f 3950 04bf
0.64583224 0.61966646 0.8326917 0.49001864 0.63893074 0.5870457 0.5355114 0.4570555
0.55319434 -0.4257346 0.63554657 -0.5168491

fc2.weight f4 [6, 12]
00000000: ced3 dd3f fb58 0040 e437 dec0 5b7a f13f
00000010: 4163 ed3f 0066 fe3f 7489 0740 d9fd 0540
00000020: 4664 f43f 7fe5 ecc0 2f69 da3f c14a bac0
00000030: cc2b 1dc0 26d7 29c0 bb51 c040 52cb 20c0
00000040: 9e8c 20c0 5bcb 30c0 0412 34c0 d283 3ac0
00000050: b3ff 30c0 a4a9 8440 2076 18c0 7347 c43f
00000060: 3e25 3fc0 532f 3dc0 cd28 cf40 2725 38c0
00000070: 826f 32c0 06d5 46c0 a839 58c0 d0d5 62c0
00000080: 99ac 3cc0 67c0 993f 6977 2fc0 b73c a2bf
00000090: 13c5 56c0 ac5e 65c0 a865 f140 e86c 64c0
000000a0: 7c46 5ac0 f3d3 71c0 e1a1 85c0 54e8 86c0
000000b0: f703 6ac0 89b1 e1bd 3db9 54c0 fdbd 28c0
000000c0: a9ff 6ebf 02c4 70bf ab5d 7140 8ee9 5fbf
000000d0: edb7 21bf 12d6 70bf 1abd 3dbf c02a 51bf
000000e0: 128b 8bbf e9d9 0541 f2c1 51bf 2718 9d40
000000f0: 03f8 0040 6055 0540 fd5a bac0 e0fb 0140
00000100: e5c9 f73f bcc8 0540 f90d 0140 388a ee3f
00000110: bd4f 0a40 a475 25c1 b249 e03f 2c7c 1ac1
1.7330263 2.005431 -6.9443226 1.8865465 1.8545915 1.9874878 2.1177645 2.0936186
1.9093101 -7.4030147 1.706335 -5.821625 -2.4557981 -2.6537566 6.009977 -2.5124097
-2.5085826 -2.7624118 -2.8135996 -2.9142957 -2.7656066 4.145708 -2.3822098 1.5334305
-2.986648 -2.9560134 6.4737306 -2.8772676 -2.788056 -3.106752 -3.378519 -3.5443
-2.9480345 1.2011842 -2.7416632 -1.2674779 -3.3557785 -3.5839033 7.543659 -3.569147
-3.410552 -3.7785614 -4.1760106 -4.2158604 -3.656492 -0.1102019 -3.323806 -2.636596
-0.93358856 -0.94049084 3.771342 -0.8746575 -0.63171273 -0.94076645 -0.7411667 -0.81705856
-1.0901816 8.365701 -0.8193656 4.9091983 2.0151374 2.0833359 -5.823607 2.0309982
1.9358488 2.0903769 2.0164778 1.8635931 2.1611168 -10.341221 1.752249 -9.655315

fc2.bias f4 [6]
00000000: 674f 003e f472 483e ccfd f13f 685e 3f40
00000010: f74f 46bf 34c8 713f
0.1253029 0.19575101 1.8905578 2.990137 -0.77465767 0.9444611

fc3.weight f4 [3, 6]
00000000: b0b6 7f40 55fc 47c0 1d8b 21c0 4f61 13c0
00000010: 13ac 21c0 c3c2 8740 8c1d 833e 7219 38bf
00000020: 21c2 00bf ec0a 65bf 0f5c 76be aae8 55be
00000030: 14dd 1cbf 8834 1240 7ba2 5940 05b7 7d40
00000040: c4e1 b2bf c1a8 903f
3.9955254 -3.1247761 -2.5241158 -2.3028142 -2.5261276 4.2425246 0.2560848 -0.71913826
-0.5029622 -0.8946979 -0.24058555 -0.20889536 -0.6127484 2.2844563 3.400542 3.9642956
-1.3975148 1.13015

fc3.bias f4 [3]
00000000: 46cf 803e 70ba 313f 1911 9540
0.25158137 0.69425106 4.658337
