results/january.pt (torch, 11595 bytes, 26 tensors)

batchNorm_fc1.weight f4 [15]
0.587952 0.5847713 0.6029209 0.8530222 0.34189105 0.2999253 0.59948474 0.7090964
0.44734037 0.58745515 0.40030026 1.1347264 0.46080446 0.5165402 0.70286185
00000000: 0684 163f 92b3 153f 0659 1a3f aa5f 5a3f
00000010: 580c af3e cf8f 993e d577 193f 5787 353f
00000020: cc09 e53e 7663 163f 28f4 cc3e b73e 913f
00000030: 90ee eb3e fb3b 043f c1ee 333f

batchNorm_fc1.bias f4 [15]
-0.14039917 -0.10127026 0.09718329 0.13036704 -0.0058596535 -0.059870243 -0.09469004 0.057139058
0.07036655 -0.032931592 -0.06993193 0.14370824 -0.08343261 -0.1294491 -0.1848892
00000000: cdc4 0fbe c866 cfbd 0808 c73d f07e 053e
00000010: 5602 c0bb 803a 75bd daec c1bd a50a 6a3d
00000020: 561c 903d 47e3 06bd 7938 8fbd 4128 133e
00000030: b7de aabd 4e8e 04be 9853 3dbe

batchNorm_fc1.running_mean f4 [15]
0.23947053 -0.012723118 -0.13930196 0.2827329 -0.07528843 -0.19799401 0.19010456 -0.26787603
-0.25043246 0.051901367 0.005576759 0.09932274 0.056021772 -0.06538527 0.053600777
00000000: c337 753e a074 50bc 2ca5 0ebe 5ec2 903e
00000010: d230 9abd f1be 4abe c5aa 423e 0c27 89be
00000020: af38 80be 8796 543d 3fbd b63b b969 cb3d
00000030: 1677 653d b6e8 85bd 7d8c 5b3d

batchNorm_fc1.running_var f4 [15]
0.01575852 0.034431502 0.03374175 0.015954351 0.06101127 0.053121228 0.020808473 0.03694072
0.05728335 0.029210808 0.06591319 0.035439987 0.037431594 0.027490115 0.036062535
00000000: 0318 813c 0c08 0d3d ca34 0a3d b3b2 823c
00000010: f4e6 793d a595 593d 8876 aa3c 274f 173d
00000020: f2a1 6a3d 814b ef3c 7ffd 863d 8529 113d
00000030: df51 193d f332 e13c 4fb6 133d

batchNorm_fc2.weight f4 [12]
0.49815318 0.6404572 0.56384504 0.581055 0.5194675 0.6367984 0.6204624 0.7422745
0.6851767 0.59385717 0.8357031 0.57653135
00000000: ef0d ff3e 01f5 233f 2658 103f 05c0 143f
00000010: d2fb 043f 3805 233f a0d6 1e3f b405 3e3f
00000020: bd67 2f3f 0607 183f a3f0 553f 8f97 133f

batchNorm_fc2.bias f4 [12]
0.20775473 -0.47774288 -0.17820409 -0.13061342 -0.15145734 -0.09201333 0.015729457 -0.14452662
0.2323199 -0.038615085 -0.061975557 0.040662285
00000000: a8bd 543e b79a f4be 227b 36be 86bf 05be
00000010: a217 1bbe 7c71 bcbd 10db 803c c9fe 13be
00000020: 45e5 6d3e da2a 1ebd 15da 7dbd 7f8d 263d

batchNorm_fc2.running_mean f4 [12]
-0.8133924 0.05872826 -0.26292127 -0.0921216 -0.37610093 -0.06998721 -0.05229209 -0.16067246
0.055718485 -0.43011993 0.6766832 0.0078096697
00000000: 7c3a 50bf 0b8d 703d 9e9d 86be 40aa bcbd
00000010: 4d90 c0be 7455 8fbd 3b30 56bd 5287 24be
00000020: 1139 643d ae38 dcbe 1c3b 2d3f 42e8 ff3b

batchNorm_fc2.running_var f4 [12]
0.13266563 0.0731894 0.14376944 0.05243029 0.08091096 0.08596974 0.1743586 0.1133151
0.12559597 0.111274794 0.07656506 0.29723406
00000000: 80d9 073e 53e4 953d 4c38 133e 25c1 563d
00000010: a5b4 a53d e710 b03d 108b 323e bf11 e83d
00000020: 3b9c 003e 0ae4 e33d 24ce 9c3d 102f 983e

batchNorm_fc3.weight f4 [9]
0.33502916 0.46485344 0.48424053 0.5831899 0.57789296 0.718581 0.23992535 0.52083427
0.28721648
00000000: f188 ab3e 4501 ee3e 60ee f73e ef4b 153f
00000010: cbf0 133f edf4 373f feae 753e 6555 053f
00000020: 0a0e 933e

batchNorm_fc3.bias f4 [9]
0.268452 -0.096822545 0.18217231 -0.42571867 -0.3337278 -0.67653507 0.28092748 0.11499513
0.11482736
00000000: 8a72 893e e64a c6bd 618b 3a3e ccf7 d9be
00000010: 5fde aabe 6731 2dbf bad5 8f3e 9182 eb3d
00000020: 9b2a eb3d

batchNorm_fc3.running_mean f4 [9]
0.13491943 -0.19968459 0.1874451 -0.1563853 -0.030937927 -0.07896279 -0.330052 0.02057634
-0.2890847
00000000: 5228 0a3e 1e7a 4cbe 9cf1 3f3e 7823 20be
00000010: 8971 fdbc 3eb7 a1bd 93fc a8be b68f a83c
00000020: e902 94be

batchNorm_fc3.running_var f4 [9]
0.14236276 0.19696872 0.111299776 0.18522915 0.081281744 0.13018452 0.04958808 0.1198291
0.06161241
00000000: 8bc7 113e 2bb2 493e 23f1 e33d b6ac 3d3e
00000010: 0b77 a63d 174f 053e df1c 4b3d f668 f53d
00000020: 4b5d 7c3d

batchNorm_fc4.weight f4 [6]
5.795252 6.2971807 5.8355055 6.2368493 4.6953917 5.6370506
00000000: b472 b940 8182 c940 76bc ba40 4594 c740
00000010: a640 9640 b862 b440

batchNorm_fc4.bias f4 [6]
1.9053118 2.4635038 1.7909358 1.2518741 1.0216533 1.9233632
00000000: 42e1 f33f 0caa 1d40 623d e53f 693d a03f
00000010: 89c5 823f c430 f63f

batchNorm_fc4.running_mean f4 [6]
0.55180883 0.6102433 0.4511101 -0.21923122 0.2611599 0.7767122
00000000: 5843 0d3f e838 1c3f e7f7 e63e 267e 60be
00000010: c0b6 853e 9cd6 463f

batchNorm_fc4.running_var f4 [6]
0.02066486 0.04867767 0.020490592 0.007962987 0.03774091 0.13598555
00000000: 5a49 a93c 3d62 473d e3db a73c 3077 023c
00000010: 3696 1a3d cc3f 0b3e

fc1.weight f4 [15, 18]
-0.5686165 0.02577228 0.028411033 0.026552798 -0.053494833 0.09327359 -0.0783606 0.10851674
0.012984757 0.061320465 -0.044205096 0.0020175856 0.13771133 0.035583626 0.28650585 0.14391549
0.070996374 0.19074123 -0.957891 0.09766862 0.21864446 -0.121885665 -0.10945944 0.038106013
-0.16802357 -0.041139778 0.07844403 0.055822354 0.038308702 0.2816102 0.1343711 0.09582084
0.14178155 0.040725492 -0.03909798 -0.017688015 0.7613534 0.012489058 0.110180475 -0.20778269
0.12677372 0.0010129628 0.21511377 0.11528579 -0.040791076 -0.17434025 -0.10077021 -0.14941412
0.16491646 -0.1670008 -0.015310394 0.20568618 -0.06372058 -0.15929592 0.52549607 0.17141849
-0.0672609 0.22565925 0.0994481 -0.03421243 0.009099339 0.022698782 0.19481643 0.20136364
0.14825858 0.17629436 -0.044627953 0.19597378 0.05817659 0.1302009 0.15100005 -0.09991042
0.1073807 -0.28680953 0.09354017 -0.34745592 -0.5319428 0.13157211 0.044757124 0.069368325
-0.25109196 -0.18173866 -0.27778015 -0.04764105 0.2992802 -0.36436498 0.1072602 0.004156838
-0.47194856 0.044009026 0.3145213 0.20107593 0.10307634 -0.5913694 -0.18783441 0.11179446
0.1054557 0.14838202 -0.259079 -0.20511898 -0.13359992 -0.17644095 0.26746014 0.035684094
-0.4010944 0.10450087 0.050384205 0.059602313 -0.6841636 0.011798134 -0.07614647 0.06378521
0.33563483 -0.18190078 -0.0011875584 -0.08562077 0.0018219252 0.0039820536 -0.0009962923 0.07124005
0.10607721 0.04936585 -0.03344095 0.18649799 0.23974569 -0.113461904 0.60917693 0.1801781
0.05260123 0.019537255 0.036711283 -0.062915415 -0.040068984 -0.31697467 0.10237052 0.051844615
0.1274229 0.09078074 -0.44131404 0.1278128 0.029952696 0.08188564 0.16792032 -0.16738698
-0.027974758 0.05694759 -0.024577565 0.025139283 0.4041879 -0.061238352 -0.58372957 -0.05966299
0.019174399 0.10995148 -0.112951055 -0.48524886 -0.22347914 -0.011558417 0.16298328 0.06599375
-0.12121244 -0.3653139 -0.92114073 0.15400706 -0.2814303 0.007853855 0.024579257 0.21414603
-0.13740236 -0.044165682 0.13108242 0.03385584 0.2873248 -0.11004332 0.07490305 -0.08233292
0.0039952477 -0.12721425 0.08408361 0.062386725 0.30247626 -0.3448759 0.12533124 -0.08660099
-0.39552024 -0.47959468 0.17186792 0.21476875 -0.099612616 0.08181671 -0.36845556 -0.2520105
0.17897183 -0.44691947 0.17999491 -0.22033508 0.1384933 0.18679084 -1.3671559 -0.090613715
0.04063944 -0.0053169136 0.10721228 -0.0022053386 0.12803514 0.048388492 -0.121685185 -0.09867009
-0.091295764 -0.09692526 0.07712195 -0.11015967 -0.034879886 0.063997954 -0.1373796 -0.015033288
0.35271588 0.2910265 -0.33425772 0.07297489 0.039010417 -0.14898732 -0.42395845 -0.086543985
0.038388908 0.010209879 0.2909328 0.007606146 0.2947907 0.11592897 0.033174004 -0.20356478
-0.05401237 -0.06364635 0.46722034 0.13077725 0.14743061 0.030445565 -0.05819947 0.06994363
-0.29730308 0.1963968 -0.0040397593 -0.039031833 0.15362102 -0.0070163603 0.28919417 -0.061179772
-0.28345403 -0.2523048 -0.05614905 0.07643617 0.39411336 -0.13406679 -0.3782914 -0.2328115
00000000: da90 11bf 6320 d33c 41be e83c 4185 d93c
00000010: 661d 5bbd 3906 bf3d 867b a0bd 063e de3d
00000020: 05be 543c 2b2b 7b3d 6710 35bd 7839 043b
00000030: 3304 0d3e 23c0 113d e5b0 923e 955e 133e
00000040: 8c66 913d ab51 433e 5838 75bf 7c06 c83d
00000050: 55e4 5f3e 319f f9bd 452c e0bd 0d15 1c3d
00000060: 5f0e 2cbe 2f82 28bd 43a7 a03d fba5 643d
00000070: 96e9 1c3d 362f 903e 9498 093e b73d c43d
00000080: 2f2f 113e c6cf 263d 3425 20bd 75e6 90bc
00000090: 0ee8 423f e89e 4c3c 4da6 e13d fcc4 54be
000000a0: f8d0 013e 64c5 843a c946 5c3e f51a ec3d
000000b0: 8b14 27bd 4086 32be 9d60 cebd 0400 19be
000000c0: dcdf 283e 4202 2bbe 72d8 7abc 669f 523e
000000d0: ef7f 82bd 781e 23be e986 063f 5488 2f3e
000000e0: 15c0 89bd 3813 673e 72ab cb3d 5522 0cbd
000000f0: 6515 153c ccf2 b93c f57d 473e 4532 4e3e
00000100: 19d1 173e 8286 343e cdcb 36bd 5aad 483e
00000110: 934a 6e3d 6253 053e c29f 1a3e d69d ccbd
00000120: 6aea db3d b3d8 92be fd91 bf3d bee5 b1be
00000130: 672d 08bf d7ba 063e 3f53 373d fb10 8e3d
00000140: 208f 80be b319 3abe 3339 8ebe 4323 43bd
00000150: 413b 993e 0c8e babe 3cab db3d 1636 883b
00000160: 3ea3 f1be cf42 343d f008 a13e d9e6 4d3e
00000170: b019 d33d fc63 17bf aa57 40be 7ef4 e43d
00000180: 28f9 d73d 75f1 173e 01a6 84be b60a 52be
00000190: 6bce 08be f0ac 34be 89f0 883e 7c29 123d
000001a0: 3f5c cdbe 8d04 d63d ab5f 4e3d 8e21 743d
000001b0: 5825 2fbf f64c 413c aef2 9bbd d2a1 823d
000001c0: 54d8 ab3e 3344 3abe d9a7 9bba f159 afbd
000001d0: aacd ee3a e37b 823b 0696 82ba 4ee6 913d
000001e0: 023f d93d d833 4a3d 61f9 08bd 54f9 3e3e
000001f0: e57f 753e b75e e8bd 05f3 1b3f 9c80 383e
00000200: 6374 573d 980c a03c 925e 163d ccd9 80bd
00000210: 601f 24bd 814a a2be a3a7 d13d 055b 543d
00000220: 267b 023e 41eb b93d eaf3 e1be 5ce1 023e
00000230: 5b5f f53c a9b3 a73d 4ef3 2b3e 7e67 2bbe
00000240: 522b e5bc e041 693d e456 c9bc e6f0 cd3c
00000250: b7f1 ce3e 11d5 7abd 4d6f 15bf 2e61 74bd
00000260: a113 9d3c 3e2e e13d e252 e7bd 8a72 f8be
00000270: b7d7 64be 845f 3dbc 17e5 263e bb27 873d
00000280: 3a3e f8bd 6c0a bbbe e1cf 6bbf 07b4 1d3e
00000290: a217 90be 75ad 003c 705a c93c 1949 5b3e
000002a0: 34b3 0cbe 13e7 34bd 783a 063e 6cac 0a3d
000002b0: 3c1c 933e 645e e1bd c566 993d 299e a8bd
000002c0: 91ea 823b 7444 02be 0734 ac3d 3989 7f3d
000002d0: 2bde 9a3e 9393 b0be d556 003e dc5b b1bd
000002e0: a181 cabe 6f8d f5be 25fe 2f3e 57ec 5b3e
000002f0: b301 ccbd 858f a73d 35a6 bcbe 8507 81be
00000300: 6444 373e a1d2 e4be 9650 383e 859f 61be
00000310: 30d1 0d3e 1946 3f3e f7fe aebf af93 b9bd
00000320: 8b75 263d 8139 aebb 1d92 db3d 7187 10bb
00000330: a51b 033e 0333 463d 1536 f9bd 8b13 cabd
00000340: 46f9 babd c080 c6bd 1df2 9d3d 659b e1bd
00000350: 36de 0ebd 5c11 833d 3dad 0cbe 2e4e 76bc
00000360: 2d97 b43e 6d01 953e d423 abbe dc73 953d
00000370: 63c9 1f3d 2290 18be 1511 d9be f93d b1bd
00000380: b03d 1d3d 5647 273c 25f5 943e fa3c f93b
00000390: ceee 963e 2b6c ed3d 77e1 073d 4973 50be
000003a0: 133c 5dbd 0459 82bd 8137 ef3e 79ea 053e
000003b0: 0df8 163e fa68 f93c 9162 6ebd 9b3e 8f3d
000003c0: 1c38 98be 3e1c 493e f55f 84bb d8df 1fbd
000003d0: d44e 1d3e 7fe9 e5bb 4211 943e a497 7abd
000003e0: e320 91be 182e 81be 8cfc 65bd 918a 9c3d
000003f0: 3ac9 c93e ce48 09be 69af c1be 2366 6ebe

fc1.bias f4 [15]
0.19811408 -0.0070621213 -0.15928775 0.16959047 0.043350365 -0.15760665 0.18004768 -0.2875529
-0.18826777 0.0733525 0.077025294 0.18035458 0.03267391 -0.08963422 0.096523404
00000000: 6bde 4a3e 5e69 e7bb 541c 23be 20a9 2d3e
00000010: 2790 313d a363 21be 6b5e 383e 223a 93be
00000020: 44c9 40be d639 963d 70bf 9d3d dfae 383e
00000030: 14d5 053d 2592 b7bd 10ae c53d

fc2.weight f4 [12, 15]
-0.16118847 -0.0740171 -0.26586056 -0.070964105 -0.022167211 -0.17446673 -0.29719982 -0.47527435
-0.024680577 -0.023456756 -0.14657615 -0.0689489 -0.5868368 -0.008106447 -0.20002411 0.12684228
-0.12506784 -0.0118903415 -0.30565885 0.12662026 0.07664203 -0.10897438 -0.16531794 -0.0041542198
-0.18272614 0.24047425 -0.44263303 0.077574655 0.03040675 0.21693593 0.03485536 0.24332507
-0.15927365 -0.15371981 0.18917377 0.27344775 0.063163154 -0.25686163 -0.40216306 0.20269798
-0.16709967 0.24528337 0.07354949 0.2462358 -0.10525952 -0.11574121 0.08945722 0.21008527
-0.2071844 -0.02898708 0.19401202 -0.10363022 -0.08962364 -0.23075616 -0.20557784 0.032818113
-0.19729224 0.07351229 0.55324805 -0.039392542 -0.047748055 -0.06316761 0.16879992 -0.21840465
0.07241547 -0.027757075 -0.41240066 -0.29387137 -0.075336516 -0.24985427 0.041319996 -0.3065523
-0.2637629 -0.08178824 0.22109734 0.37549913 0.27305368 -0.29280776 -0.08332152 0.1095349
-0.10854307 0.23054564 -0.09496942 0.22729598 0.0021834485 -0.14621946 0.2604903 0.060022417
0.10419172 -0.04572805 -0.077369556 0.15171884 -0.004664826 0.25274056 -0.41659835 -0.22723913
-0.06794951 0.043803263 0.028618021 0.030484263 -0.13370131 -0.19352646 0.24691412 0.1876734
-0.38933554 -0.18926147 -0.477421 0.44803438 -0.07508831 0.11737639 -0.010510927 0.1018147
-0.029945519 0.19080305 -0.40671498 -0.0022577753 -0.11011383 0.007439398 0.115828946 0.22983925
0.2158122 -0.02053144 0.09995379 -0.064652726 -0.033433933 0.11461478 0.31875277 0.13545606
-0.155512 0.08192059 0.15621126 0.5005283 -0.22341914 0.076831505 -0.15899388 0.123973496
-0.16260345 -0.36681277 -0.33232242 -0.2136022 0.051368922 0.19776079 -0.23924443 0.05764061
-0.16228803 0.025260532 -0.105400816 -0.11181958 -0.061147228 -0.08214942 -0.31331095 0.03820192
0.106586605 0.17791829 0.084818795 0.0454036 0.15110438 0.3044992 0.05936589 0.034023035
0.088152654 0.46356687 -0.024277547 -0.042408854 0.1752448 0.13735425 -0.02376654 -0.22356065
-0.4994607 -0.06741495 -0.15158857 -0.17332847 -0.42657447 0.07739971 -0.096737154 -0.033225592
0.29043296 -0.16622736 -0.097388916 -0.017160526
00000000: 970e 25be 4796 97bd e01e 88be a155 91bd
00000010: 0398 b5bc 68a7 32be 932a 98be 2957 f3be
00000020: ec2e cabc 6228 c0bc 0f18 16be 1535 8dbd
00000030: f03a 16bf e7d0 04bc 1fd3 4cbe f1e2 013e
00000040: c911 00be b5cf 42bc 517f 9cbe bea8 013e
00000050: 7ff6 9c3d f62d dfbd 1b49 29be 1f20 88bb
00000060: 901c 3bbe e23e 763e cca0 e2be 76df 9e3d
00000070: 9417 f93c 7424 5e3e 7ec4 0e3d 352a 793e
00000080: a218 23be ba68 1dbe c5b6 413e 5801 8c3e
00000090: af5b 813d 5e83 83be 51e8 cdbe 0f90 4f3e
000000a0: 2d1c 2bbe 902b 7b3e 1da1 963d 3d25 7c3e
000000b0: 4e92 d7bd ba09 edbd 5935 b73d 9820 573e
000000c0: 2628 54be 5076 edbc 16ab 463e 153c d4bd
000000d0: 998c b7bd 584b 6cbe ff82 52be 496c 063d
000000e0: fa06 4abe 9d8d 963d aaa1 0d3f 135a 21bd
000000f0: 7793 43bd 055e 81bd e3d9 2c3e 78a5 5fbe
00000100: 904e 943d ce62 e3bc 2e26 d3be 4f76 96be
00000110: 084a 9abd ccd9 7fbe 283f 293d 6cf4 9cbe
00000120: ee0b 87be 9880 a7bd 5767 623e 6c41 c03e
00000130: b1cd 8b3e e6ea 95be 79a4 aabd d553 e03d
00000140: d44b debd 2814 6c3e 547f c2bd 47c0 683e
00000150: 3018 0f3b 8eba 15be fc5e 853e 11da 753d
00000160: 7862 d53d 564d 3bbd ee73 9ebd 2f5c 1b3e
00000170: 66db 98bb 3667 813e 614c d5be 60b1 68be
00000180: 1d29 8bbd 0d6b 333d 5770 ea3c 22ba f93c
00000190: ffe8 08be cd2b 46be 0ed7 7c3e 752d 403e
000001a0: fd56 c7be c2cd 41be 8670 f4be c364 e53e
000001b0: e6c7 99bd 0863 f03d 0636 2cbc 3a84 d03d
000001c0: 4e50 f5bc e061 433e f23c d0be 2ff7 13bb
000001d0: 5c83 e1bd 32c6 f33b ba37 ed3d fb5a 6b3e
000001e0: e0fd 5c3e 8d31 a8bc 93b4 cc3d a668 84bd
000001f0: 05f2 08bd 27bb ea3d 9033 a33e feb4 0a3e
00000200: 8a3e 1fbe fbc5 a73d d8f5 1f3e 9f22 003f
00000210: fdc7 64be d659 9d3d 4bcf 22be d1e5 fd3d
00000220: 8581 26be e2ce bbbe 2a26 aabe 89ba 5abe
00000230: 3868 523d ce81 4a3e 7efc 74be 8f18 6c3d
00000240: d52e 26be 2def ce3c 62dc d7bd aa01 e5bd
00000250: 8475 7abd f53d a8bd 4b6a a0be 9e79 1c3d
00000260: 144a da3d 3630 363e 7ab5 ad3d 20f9 393d
00000270: 1bbb 1a3e 52e7 9b3e a629 733d bd5b 0b3d
00000280: 6189 b43d a358 ed3e b5e1 c6bc e8b4 2dbd
00000290: 5f73 333e 98a6 0c3e 0cb2 c2bc 15ed 64be
000002a0: 50b9 ffbe d910 8abd 093a 1bbe 057d 31be
000002b0: f867 dabe bd83 9e3d 211e c6bd 8f17 08bd
000002c0: a1b3 943e 8137 2abe d773 c7bd 3b94 8cbc

fc2.bias f4 [12]
-0.26630652 0.39870262 -0.2613326 0.07395561 0.054289766 -0.24057467 0.032546543 -0.14789337
-0.27844208 -0.00078102737 0.18765095 0.36070782
00000000: 5459 88be c022 cc3e 63cd 85be 0a76 973d
00000010: f25e 5e3d 3559 76be 864f 053d 5c71 17be
00000020: f68f 8ebe dcbd 4cba 9227 403e b2ae b83e

fc3.weight f4 [9, 12]
0.08579311 0.14933783 -0.21377695 -0.12972835 0.03550769 0.040338833 -0.018944833 -0.6189091
-0.06711031 0.20786415 -0.025328526 0.22798204 -0.048588455 0.076066755 0.28443792 0.079160884
-0.16771665 0.07148351 0.057616323 -0.50078595 -0.104267485 -0.074227706 -0.41136914 -0.14057973
0.1599345 -0.3348757 0.30950326 0.4011643 -0.1581381 0.051387466 0.07326553 0.00039117958
0.2027942 0.06366358 0.14489801 0.122147396 -0.4921559 0.14619316 0.1720738 0.13388273
-0.0023361016 -0.4220323 -0.014401325 0.118845776 -0.37288797 -0.37214544 -0.10793466 -0.2545748
-0.20911096 0.48651138 -0.28764948 0.14081734 0.19009456 0.027196787 -0.32381085 0.10558407
-0.19020376 -0.093935974 -0.09322121 -0.015914818 -0.030226493 0.1939127 0.010880583 0.10225449
0.079869635 -0.11060129 -0.22744963 0.10606202 -0.20763111 -0.1630612 -0.42102972 -0.23892727
-0.24179669 0.22305024 -0.09153735 -0.15291391 -0.36091042 -0.010174051 0.05098643 -0.40748242
0.09611842 -0.21752337 0.0495778 -0.10483284 0.06324508 -0.40050822 -0.039575033 -0.3500199
-0.31635618 0.22187147 0.071413256 -0.14903185 0.17715676 0.22544132 0.17316298 0.08142115
0.13324422 0.10989685 -0.4215387 0.07954241 0.021138959 -0.26636252 0.40363783 -0.1578075
-0.12435437 0.07507605 0.11216543 0.25544012
00000000: 4cb4 af3d 04ec 183e 58e8 5abe 82d7 04be
00000010: 8370 113d 553a 253d 3232 9bbc d470 1ebf
00000020: 2171 89bd 57da 543e c57d cfbc 2074 693e
00000030: b004 47bd e3c8 9b3d d9a1 913e 1a1f a23d
00000040: eabd 2bbe f265 923d 18ff 6b3d 8233 00bf
00000050: 318a d5bd b204 98bd fa9e d2be 22f4 0fbe
00000060: dfc5 233e d474 abbe 3677 9e3e 6865 cd3e
00000070: f4ee 21be aa7b 523d 3d0c 963d 3c17 cd39
00000080: 48a9 4f3e 0d62 823d 2560 143e 6a28 fa3d
00000090: dcfb fbbe a9b3 153e 1d34 303e 8e18 093e
000000a0: 4819 19bb 9e14 d8be 89f3 6bbc 6a65 f33d
000000b0: 2ceb bebe d989 bebe d90c ddbd a157 82be
000000c0: 2f21 56be 0518 f93e cb46 93be 6c32 103e
000000d0: 26a8 423e cccb de3c 89ca a5be 763c d83d
000000e0: c6c4 42be 8161 c0bd c3ea bebd cb5f 82bc
000000f0: 8d9d f7bc 0d91 463e 7944 323c cd6a d13d
00000100: b192 a33d ee82 e2bd 8ee8 68be 0b37 d93d
00000110: 409d 54be 84f9 26be 3591 d7be 5aa9 74be
00000120: 8d99 77be 4867 643e ef77 bbbd 7795 1cbe
00000130: 40c9 b8be 10b1 26bc 26d7 503d 89a1 d0be
00000140: bcd9 c43d 72be 5ebe 1712 4b3d 9ab2 d6bd
00000150: a386 813d 6a0f cdbe 6e19 22bd cf35 b3be
00000160: 70f9 a1be 4632 633e 1d41 923d ce9b 18be
00000170: 9568 353e 17da 663e a351 313e 22c0 a63d
00000180: 2c71 083e 9a11 e13d ecd3 d7be 22e7 a23d
00000190: 9c2b ad3c ab60 88be 9ea9 ce3e 4a98 21be
000001a0: 81ad febd 79c1 993d fdb6 e53d 0cc9 823e

fc3.bias f4 [9]
0.21786495 0.085957445 -0.12340833 0.32093588 0.16779579 0.24486618 -0.08598925 -0.068162434
-0.38977307
00000000: fd17 5f3e 750a b03d 82bd fcbd b551 a43e
00000010: a9d2 2b3e 33be 7a3e 221b b0bd bf98 8bbd
00000020: 5690 c7be

fc4.weight f4 [6, 9]
-0.19877623 -0.06338673 -0.16984151 0.06368687 -0.018649759 0.6000392 -0.15402466 0.25131655
-0.104199775 0.045597084 -0.12087878 -0.019774994 1.2066478 -0.060478732 0.14612284 0.050495777
-0.040327568 -0.06536895 -0.16602102 -0.0029137053 -0.18017814 0.06737866 0.0012632486 0.586228
-0.17648794 0.26168582 -0.095656276 -0.11368507 -0.14927801 -0.035922937 -0.06576428 -0.19863383
0.7418486 -0.07877131 -0.10440347 -0.08437881 -0.021920467 -0.15991862 -0.12079367 -0.16044787
0.3710315 0.41487777 0.15429233 -0.09338009 -0.13065615 -0.07418988 -0.21008795 -0.016422462
-0.058127575 0.95011497 0.16815674 0.047871083 -0.00075989973 0.0233371
00000000: ff8b 4bbe e7d0 81bd efea 2dbe 436e 823d
00000010: 61c7 98bc 2b9c 193f a4b8 1dbe 90ac 803e
00000020: b166 d5bd 02c4 3a3d 4b8f f7bd 2bff a1bc
00000030: 6f73 9a3f 8cb8 77bd 3aa1 153e a9d4 4e3d
00000040: 852e 25bd 28e0 85bd 6a01 2abe ddf3 3ebb
00000050: 9e80 38be d3fd 893d 9793 a53a 0a13 163f
00000060: 41b9 34be affb 853e 70e7 c3bd b8d3 e8bd
00000070: 56dc 18be ee23 13bd 6caf 86bd ab66 4bbe
00000080: cae9 3d3f da52 a1bd 7dd1 d5bd ccce acbd
00000090: 8d92 b3bc b5c1 23be ac62 f7bd 724c 24be
000000a0: d7f7 bd3e dc6a d43e cffe 1d3e 103e bfbd
000000b0: baca 05be ddf0 97bd 4c21 57be 6688 86bc
000000c0: 2e17 6ebd bc3a 733f 4831 2c3e 7814 443d
000000d0: 0234 47ba 722d bf3c

fc4.bias f4 [6]
0.66152453 0.5356581 0.5460534 -0.078596584 0.27764928 0.69505006
00000000: ac59 293f e420 093f 28ca 0b3f 3ff7 a0bd
00000010: 0c28 8e3e cdee 313f

fc5.weight f4 [3, 6]
4.7591615 5.4061594 4.602435 4.901336 3.6334515 4.7037053 0.092780225 0.14665982
-0.063791245 -0.0020900534 -0.14548992 0.110363476 0.8300939 -1.3742954 0.3277266 0.012487366
0.1375745 -0.062636405
00000000: 0d4b 9840 42ff ac40 2647 9340 bfd7 9c40
00000010: 788a 6840 c184 9640 8f03 be3d fe2d 163e
00000020: fca4 82bd 47f9 08bb 4ffb 14be 3f06 e23d
00000030: 0981 543f e9e8 afbf c8cb a73e cf97 4c3c
00000040: 54e0 0c3e 8447 80bd

fc5.bias f4 [3]
-0.5471501 0.49002653 5.0841866
00000000: 0712 0cbf c2e4 fa3e a8b1 a240
