results/january.pt (torch, 3351 bytes, 6 tensors)

fc1.weight f4 [12, 18]
00000000: 7343 2b40 4865 68bf 5bdd 5b3e 4de1 e03f
00000010: 6366 12c0 2b1f 6b3e bff4 8b3e bb1a a03e
00000020: 1e76 66bf a8b5 68bf f4ca aebe 6ca2 6e3f
00000030: 273c ba3e 4043 6abf 66ea bfbe c570 08bf
00000040: 85c5 d13e 324b 703f aee6 743e 8c93 2f3e
00000050: 25ab 35bf 5020 45c0 a88a 003f dff9 83be
00000060: 3a9d 2f3f 7c15 a23d 63a0 89bf fa53 88c0
00000070: 8edc 3fbf ea2e 8bbf 96e9 db3e 3b32 0abf
00000080: bddc b93e 865f 403e 11e4 cebd b43a 5b3f
00000090: f3b8 a3be 17be 82bd e640 83bf b66b acbf
000000a0: db74 423f 13f1 03bf 9ab1 5a3f 7cc8 1f3e
000000b0: b34c debf c232 7dc0 9b34 46bf ed2f a7bf
000000c0: 32c9 d73e 3b69 a7bf 972e 8a3f 5b68 d23e
000000d0: f4d3 bbbe 96d5 573f ba3f 2b40 732e 43bf
000000e0: 3679 283e 3374 42bf eb52 1ac0 2d1c 4e3e
000000f0: 8b70 483e a8bd 923e 7268 6ebf 6ddc 0240
00000100: 9276 0bbf 81bf 563f d484 aa3e fc5b 6ebf
00000110: deab c9be 5864 1c3e 0f59 9c3e 3e34 5e3f
00000120: 628a 4c40 b0be 36bf 2a3b eabe ddb4 58bf
00000130: 421d 1bc0 594a 2c3e e3f9 af3e 1ab1 9c3e
00000140: 5afd ab3f 2ba5 54bf c473 06c0 ce35 30bf
00000150: c716 e43e 80b2 58bf d01a 6dbe 983b c4be
00000160: d5ba 56bf 132b 6e3f c8a4 d7c0 8e81 08bf
00000170: a646 8bbe a449 b33f fc65 37bf 9341 533e
00000180: 3a4a 103f b86f 103f 6536 8d3f 49e2 b63f
00000190: 84bf 4dbf 8371 e53f cd41 473f 9923 2cbf
000001a0: 51b5 e0be 1252 00bf 9503 34be 5206 f43f
000001b0: 1ed5 5f40 d49a 4abf 2975 91be 6f2a 65bf
000001c0: 20bc 29c0 a826 203e cf4c bc3e 511c a03e
000001d0: e3d5 64bf 23c8 65bf f5d8 12c0 1ea1 46bf
000001e0: 911c e93e 84e0 69bf 99fc 8dbd e8cd adbe
000001f0: 2765 64bf 1f60 683f 27b0 4140 83e6 20bf
00000200: 5a65 1fbf 9603 58bf 6a86 29c0 c69c fa3d
00000210: f0e7 a63e 28da 853e b551 523f 8264 59bf
00000220: 65fd 02c0 8b20 1bbf 6db0 d83e c40e 56bf
00000230: 9b6f c5bd 30c3 94be 8a94 55bf 8e45 763f
00000240: d95a 6fbf 0ba9 a7be 547b a23d fe35 1cc0
00000250: 6bb0 1f3e 2dbc 65bd 951d 83be 851a c3bd
00000260: 3f7b 3ebf 98e1 bdbf db37 fa3e 80f1 bbbf
00000270: 3a07 e2be ff39 0c3f 08c4 413f 994b 57be
00000280: 1150 88be bcb5 83bf 2367 b23c 8c86 6b3d
00000290: c803 3cbf 0416 a7bf 7a4a 0e3f 8479 b1be
000002a0: a71a 2a3f f6e4 0e3e 6319 90bf 8886 95c0
000002b0: 387b 36bf 1f8b 87bf e8fe fe3e 45f7 00bf
000002c0: bc85 e93e 474a 553e 03e1 4abe 8487 5d3f
000002d0: 7af7 083f 6503 623e 7429 cbbe 3626 c4bf
000002e0: 818f 753e 78c3 86bd 4047 eb3e 3995 a83d
000002f0: f38f 80bf 4da4 17c0 ac1f 29bf 5855 85bf
00000300: 511f aa3e 53b3 05bf 5ff0 0abe da31 5e3e
00000310: 2c04 d0bd b8e9 543f 23dd babe 253c 65be
00000320: 9072 72bf 9658 aac0 e1f1 4d3f 9a12 11bf
00000330: 05c7 433f fba4 273e f7f9 dbbf f718 7ec0
00000340: b427 2ebf 4de9 a2bf 0d2b da3e 37d9 0fbf
00000350: b1e4 8b3f 6f37 da3e 4d35 03bf 9a92 4d3f
2.6759918 -0.9077954 0.21471159 1.7568756 -2.2874992 0.22961108 0.27335164 0.31270394
-0.9002398 -0.90902185 -0.34139216 0.93216586 0.36374018 -0.91508865 -0.3748352 -0.5329707
0.40971008 0.9386474 0.23916122 0.17146128 -0.7096427 -3.0800972 0.5021157 -0.25776574
0.68599284 0.07914254 -1.0752071 -4.260251 -0.74945915 -1.0873692 0.4295165 -0.53982896
0.36301222 0.1878644 -0.10102094 0.8563645 -0.31977043 -0.06383913 -1.025418 -1.3470371
0.7595956 -0.51539725 0.8542725 0.15603822 -1.7367157 -3.956223 -0.7742402 -1.3061501
0.42145687 -1.3078989 1.0795468 0.41095242 -0.36685145 0.8431028 2.6757646 -0.7624275
0.16452488 -0.75958556 -2.411311 0.20127936 0.19574182 0.2866032 -0.9312812 2.0447037
-0.544778 0.8388596 0.33304465 -0.93109107 -0.39388937 0.15272653 0.30536696 0.86798465
3.1959462 -0.71384716 -0.45748264 -0.84650975 -2.4236608 0.16825236 0.34370336 0.30603868
1.3436692 -0.83064526 -2.1008158 -0.688321 0.44548628 -0.8464737 -0.2315476 -0.38326716
-0.83878833 0.93034476 -6.738865 -0.53322685 -0.27202338 1.4006848 -0.7163999 0.20630483
0.5636326 0.5642047 1.1032225 1.4287807 -0.80370355 1.7925266 0.7783478 -0.6724182
-0.43888333 -0.5012523 -0.17579491 1.9064429 3.4973826 -0.791425 -0.284097 -0.89517874
-2.6521072 0.15639746 0.3677735 0.31271604 -0.89388865 -0.8975851 -2.294492 -0.77589595
0.45529607 -0.9135821 -0.06932945 -0.33946157 -0.89216846 0.9077167 3.0263765 -0.6285173
-0.62264025 -0.8438047 -2.648829 0.122369334 0.3259883 0.26143003 0.82155925 -0.8491899
-2.046716 -0.6059653 0.42322102 -0.8361628 -0.09640428 -0.29055166 -0.8342978 0.9619988
-0.93498 -0.32746157 0.07933679 -2.4407954 0.15594642 -0.05608766 -0.25608507 -0.095265426
-0.7440681 -1.4834471 0.4887074 -1.4683075 -0.44146138 0.54775995 0.75689745 -0.21024932
-0.26623586 -1.0289836 0.021777695 0.05750136 -0.7344327 -1.3053594 0.5558239 -0.34663022
0.6644692 0.13954529 -1.1257747 -4.6726723 -0.71281767 -1.0589331 0.49803853 -0.50377303
0.45609844 0.20829116 -0.19812398 0.86534905 0.5350262 0.22071607 -0.39680064 -1.5324161
0.23980524 -0.065802515 0.45952797 0.08231587 -1.004393 -2.3694031 -0.6606395 -1.041667
0.33227018 -0.5222675 -0.13568257 0.21698704 -0.10157046 0.83169127 -0.3649684 -0.22386225
-0.9470606 -5.3233137 0.804472 -0.5666901 0.76475555 0.16371529 -1.7185658 -3.9702737
-0.6802933 -1.2727448 0.4261097 -0.5619082 1.0929166 0.42620417 -0.51253206 0.8030182

fc1.bias f4 [12]
00000000: bd7d b73e ace1 813f cc5b a53f 3e90 c03e
00000010: 2450 353e 825a 473f 744b 3b3e 6c35 5b3e
00000020: fd3e 6bbf 43e2 843f 9032 6d3f 93ed 9f3f
0.35838118 1.0146995 1.2918639 0.37610048 0.17706352 0.7787248 0.18290502 0.21407098
-0.9189299 1.038155 0.9265528 1.2494377

fc2.weight f4 [6, 12]
00000000: 79f3 2940 3239 903f 2291 8a3f 49bc 2b40
00000010: 7198 4140 5df2 06c1 ef44 6140 6120 3140
00000020: 7fac 99bf e846 993f 38b2 7f3f 7601 753f
00000030: 8ab8 f0bf 2158 9e3f 1aee 1540 b098 d0bf
00000040: 7969 d9bf a89e 3c3f e013 b1bf 99ae 67bf
00000050: b7c7 9c3f cca5 c23f df91 aa3e 0230 2040
00000060: 362b 2d40 247d 8a3f 38ad 713f d758 2240
00000070: 5728 4140 093b 10c1 7551 5a40 faad 3040
00000080: bf19 8bbf 77c5 893f 167d 923f 7a5f 6a3f
00000090: 4cf1 2340 931c 8c3f c6de 7c3f 0b0a 2640
000000a0: 135a 4140 a0eb 0bc1 2cb0 5340 fdbe 2e40
000000b0: a481 9cbf 3a7d 923f bc88 8a3f 044b 8f3f
000000c0: b43a 1f40 a4e1 903f 80c7 963f da08 2b40
000000d0: 5c84 4240 6275 0ac1 2b59 5c40 cacd 2d40
000000e0: 316d 92bf 4c99 843f f992 803f c4aa 923f
000000f0: 89ae 2040 ae4b 773f eb27 873f 51fe 2140
00000100: b9ca 3140 ce11 0cc1 d6b5 5040 b7a8 2940
00000110: 90d1 78bf 7f78 8b3f 5792 6a3f fb11 8e3f
2.6554854 1.1267455 1.0825541 2.683367 3.0249293 -8.434171 3.5198324 2.7676013
-1.2005767 1.1974764 0.99881315 0.95705354 -1.8806317 1.2370645 2.3426576 -1.6296597
-1.6985313 0.7367959 -1.383419 -0.9050079 1.2248448 1.5206847 0.33314416 2.5029302
2.7057624 1.081944 0.94404936 2.5366724 3.0180871 -9.014413 3.4112217 2.7606187
-1.0867232 1.0763386 1.1444423 0.91551936 2.5616026 1.094622 0.98777425 2.594363
3.0211227 -8.745026 3.3076277 2.730407 -1.2227063 1.1444466 1.0822978 1.1194768
2.487958 1.131886 1.1779633 2.6724153 3.0393286 -8.653658 3.4429424 2.7156854
-1.1439573 1.0359282 1.0044852 1.1458364 2.5106528 0.96599853 1.0559057 2.5311472
2.7779982 -8.754347 3.2610984 2.6509225 -0.97194767 1.0896147 0.91629547 1.1099237

fc2.bias f4 [6]
00000000: 891a 4d3f 5abe 1f40 f510 113f acfd 513f
00000010: 8acc 663f 4102 603f
0.80118614 2.4959931 0.566665 0.820277 0.9015585 0.8750344

fc3.weight f4 [3, 6]
00000000: eee7 5e40 07a5 0dc0 ffbb 6440 3107 6240
00000010: b0ef 5540 2a74 6140 4826 f3be 6ab5 f7bb
00000020: 63a9 e63e e21a 963c 5298 06bd 5758 4f3e
00000030: 9c60 92bf 9c95 6940 0933 8dbf e1e2 80bf
00000040: a596 63bf 11f2 3bbf
3.4829059 -2.2131975 3.5739744 3.531689 3.3427544 3.522715 -0.47490144 -0.007559468
0.45051107 0.018323366 -0.032860108 0.20248543 -1.1435733 3.6497564 -1.10312 -1.0069238
-0.8890174 -0.7341624

fc3.bias f4 [3]
00000000: 1bad 9a3f 905c 513f cae4 733f
1.2084078 0.81781864 0.9527098
