results/january.pt (torch, 11595 bytes, 26 tensors)

batchNorm_fc1.weight f4 [15]
00000000: 0000 803f 0000 803f 0000 803f 0000 803f
00000010: 0000 803f 0000 803f 0000 803f 0000 803f
00000020: 0000 803f 0000 803f 0000 803f 0000 803f
00000030: 0000 803f 0000 803f 0000 803f
1.0 1.0 1.0 1.0 1.0 1.0 1.0 1.0
1.0 1.0 1.0 1.0 1.0 1.0 1.0

batchNorm_fc1.bias f4 [15]
00000000: 0000 0000 0000 0000 0000 0000 0000 0000
00000010: 0000 0000 0000 0000 0000 0000 0000 0000
00000020: 0000 0000 0000 0000 0000 0000 0000 0000
00000030: 0000 0000 0000 0000 0000 0000
0.0 0.0 0.0 0.0 0.0 0.0 0.0 0.0
0.0 0.0 0.0 0.0 0.0 0.0 0.0

batchNorm_fc1.running_mean f4 [15]
00000000: 0000 0000 0000 0000 0000 0000 0000 0000
00000010: 0000 0000 0000 0000 0000 0000 0000 0000
00000020: 0000 0000 0000 0000 0000 0000 0000 0000
00000030: 0000 0000 0000 0000 0000 0000
0.0 0.0 0.0 0.0 0.0 0.0 0.0 0.0
0.0 0.0 0.0 0.0 0.0 0.0 0.0

batchNorm_fc1.running_var f4 [15]
00000000: 0000 803f 0000 803f 0000 803f 0000 803f
00000010: 0000 803f 0000 803f 0000 803f 0000 803f
00000020: 0000 803f 0000 803f 0000 803f 0000 803f
00000030: 0000 803f 0000 803f 0000 803f
1.0 1.0 1.0 1.0 1.0 1.0 1.0 1.0
1.0 1.0 1.0 1.0 1.0 1.0 1.0

batchNorm_fc2.weight f4 [12]
00000000: 0000 803f 0000 803f 0000 803f 0000 803f
00000010: 0000 803f 0000 803f 0000 803f 0000 803f
00000020: 0000 803f 0000 803f 0000 803f 0000 803f
1.0 1.0 1.0 1.0 1.0 1.0 1.0 1.0
1.0 1.0 1.0 1.0

batchNorm_fc2.bias f4 [12]
00000000: 0000 0000 0000 0000 0000 0000 0000 0000
00000010: 0000 0000 0000 0000 0000 0000 0000 0000
00000020: 0000 0000 0000 0000 0000 0000 0000 0000
0.0 0.0 0.0 0.0 0.0 0.0 0.0 0.0
0.0 0.0 0.0 0.0

batchNorm_fc2.running_mean f4 [12]
00000000: 0000 0000 0000 0000 0000 0000 0000 0000
00000010: 0000 0000 0000 0000 0000 0000 0000 0000
00000020: 0000 0000 0000 0000 0000 0000 0000 0000
0.0 0.0 0.0 0.0 0.0 0.0 0.0 0.0
0.0 0.0 0.0 0.0

batchNorm_fc2.running_var f4 [12]
00000000: 0000 803f 0000 803f 0000 803f 0000 803f
00000010: 0000 803f 0000 803f 0000 803f 0000 803f
00000020: 0000 803f 0000 803f 0000 803f 0000 803f
1.0 1.0 1.0 1.0 1.0 1.0 1.0 1.0
1.0 1.0 1.0 1.0

batchNorm_fc3.weight f4 [9]
00000000: 0000 803f 0000 803f 0000 803f 0000 803f
00000010: 0000 803f 0000 803f 0000 803f 0000 803f
00000020: 0000 803f
1.0 1.0 1.0 1.0 1.0 1.0 1.0 1.0
1.0

batchNorm_fc3.bias f4 [9]
00000000: 0000 0000 0000 0000 0000 0000 0000 0000
00000010: 0000 0000 0000 0000 0000 0000 0000 0000
00000020: 0000 0000
0.0 0.0 0.0 0.0 0.0 0.0 0.0 0.0
0.0

batchNorm_fc3.running_mean f4 [9]
00000000: 0000 0000 0000 0000 0000 0000 0000 0000
00000010: 0000 0000 0000 0000 0000 0000 0000 0000
00000020: 0000 0000
0.0 0.0 0.0 0.0 0.0 0.0 0.0 0.0
0.0

batchNorm_fc3.running_var f4 [9]
00000000: 0000 803f 0000 803f 0000 803f 0000 803f
00000010: 0000 803f 0000 803f 0000 803f 0000 803f
00000020: 0000 803f
1.0 1.0 1.0 1.0 1.0 1.0 1.0 1.0
1.0

batchNorm_fc4.weight f4 [6]
00000000: 0000 803f 0000 803f 0000 803f 0000 803f
00000010: 0000 803f 0000 803f
1.0 1.0 1.0 1.0 1.0 1.0

batchNorm_fc4.bias f4 [6]
00000000: 0000 0000 0000 0000 0000 0000 0000 0000
00000010: 0000 0000 0000 0000
0.0 0.0 0.0 0.0 0.0 0.0

batchNorm_fc4.running_mean f4 [6]
00000000: 0000 0000 0000 0000 0000 0000 0000 0000
00000010: 0000 0000 0000 0000
0.0 0.0 0.0 0.0 0.0 0.0

batchNorm_fc4.running_var f4 [6]
00000000: 0000 803f 0000 803f 0000 803f 0000 803f
00000010: 0000 803f 0000 803f
1.0 1.0 1.0 1.0 1.0 1.0

fc1.weight f4 [15, 18]
00000000: 8f99 c8be 9983 84be f089 a43d 35fd 8cbe
00000010: ad80 05be 6210 433e a337 4a3e 2f4d d43e
00000020: e1b6 9ebe 2067 3fbf 7b86 8fbe 26e3 32c0
00000030: 450a 1a3f 0a0e 81be 1562 8c3d 2840 813c
00000040: 9b54 71be 61b8 0a3f 3475 543e 5332 6ebd
00000050: 5647 d63d f728 1fbf b371 cdbd 898c 203e
00000060: 1230 1abd 15a3 8dbd e48f e8be dd18 36bf
00000070: a612 85bf 3c3d 7cbf a0c4 a33e 71fd 2dbe
00000080: 56ee 1d3e 6971 b13c ebc3 12be 54e1 073e
00000090: 5bad 2f40 5a88 563e 6625 9bbd 2d32 5dbf
000000a0: 31e9 a03d 34e8 c63e 4030 85be 6fcd 9f3c
000000b0: bfe8 aebe f5f0 f2be a585 d1bf 91d3 09bf
000000c0: 65be 113d 737b 0dbf fc82 c83d f9fe 4e3e
000000d0: c86f 10bf d6f9 16bf e73e 0f40 b4fc a33e
000000e0: 572d 2cbe 94c0 5cbf 0721 f6bc a2d6 b23e
000000f0: 024d 1ebe 313f db3d 72d2 d5be a72b 19bf
00000100: 1807 a2bf c464 bcbe 13c1 b63d 57f6 3dbe
00000110: 7f56 093e dd0f 303e 0e1e c5be 8e1c 15bf
00000120: ad7c 61be 6b6d 7ebe 8b9e d6ba 92e1 edbe
00000130: 024b 09bf 9074 863e 5086 093e 15da 4a3e
00000140: e1cf b4be 320f 28bf 632d 24be 8f9a 2ac0
00000150: 2505 4f3f eb0e 9cbe c6b9 2dbd 1efe a33c
00000160: 54a1 99be 146f 133f f9a4 c63e 91bd 763d
00000170: 32b2 443e 2ebc cdbe 608c 1ebf f9aa a83e
00000180: 5800 7e3d 4477 343e 432b 88be 996c 39bf
00000190: bff7 43bf 0363 b8bf 7089 cf3e a66c f0bd
000001a0: 6f69 a63a 5cdb 583d 6c14 59be 50c3 c23e
000001b0: 5fa0 6cbe 32b3 b7bd 9a06 183e 29b3 00bf
000001c0: be18 653d 6a85 983d 50cb 0e3e 2e52 253e
000001d0: 0052 c4be db12 23bf 0b61 49bf 318e 16c0
000001e0: b5bd f53e 4513 94be 0546 b5bd 0ec1 21be
000001f0: 6609 f9bd 2959 863e 393a 2240 ecfa 943e
00000200: 59b0 94be ecb6 4bbf 1430 11be 3320 243e
00000210: b59f 63be 91e9 163d 5f20 f8be 5744 0fbf
00000220: 46f1 b7be 0f32 933f 16c9 283d 6e6a 11bf
00000230: d948 473e a32c 5f3e ea71 00bf 440d 37bf
00000240: 452e 47c0 107e 243e 2f56 913e b3cd fa3e
00000250: 782b 32be 6215 443f f249 133e 22bd 5a3e
00000260: 7f8a e93e 0f4d 37bc ff87 7cbe df89 4a3f
00000270: 55ae b33e 6bd3 f33e 2f37 bf3d cc97 b33d
00000280: bc53 19be 860b 7f3f 4d95 89be c17b e6be
00000290: c605 e5bc 5787 4ebe 292c 22bf e65f 6d3e
000002a0: 6cea 3b3c 73e0 b93e 34d6 acbe 47c4 30bf
000002b0: a3d5 0bbf 6bb5 14c0 012b 5b3f 5d81 14bf
000002c0: e23a 8d3d b546 58be f1ad a8bd 8420 2a3f
000002d0: 0e4f 9cbe 0b71 8abe 902d 773e 6b1d 03be
000002e0: 9def 41bd ca16 2a3e 4410 153e b15e b43e
000002f0: 69ae 41be 57a3 2abf f400 2cbe 42a1 1fc0
00000300: c4d6 e43e 963c c9be d657 dd3d a6c8 5bbe
00000310: d08f 30be 7f6d 223f 69d5 3abf 1fc8 69bf
00000320: bfa1 15bd 4d4c 9c3d 6887 4bbf f1ed b43e
00000330: 8350 e33e e4d9 773f 04db 213e 32bd 7cbf
00000340: f62e 64bf 3174 54c0 94f4 fe3f 073c efbe
00000350: 8486 35be 430e 1dbf a47f d1bd 5a3f 863f
00000360: 1720 52bd 0d54 b5bc 244b ab3c 6b18 b2be
00000370: 5c7f 203d d7f2 8c3e 81b0 9a3c 8415 453e
00000380: 752f c9be 552e 36bf 3b6a 66be b6e6 ffbf
00000390: 740c 083f 5bae 0cbe e201 3f3d 5c0a 3fbe
000003a0: 30a7 0dbe 7fa0 ee3e c6d0 1740 2ef8 7a3e
000003b0: bc28 0dbe 2e11 58bf 06f5 213c 6f7a b33e
000003c0: 6517 5d3d f0f4 d73d 6b7e b4be e9fc 01bf
000003d0: 3855 c1bf b705 09bf 3d30 4f3c e70f 0abf
000003e0: 01d1 fb3d 8dbf 013e 4618 11bf 3586 0ebf
000003f0: 5b4c 1cbe c2de 6fbd 8dc8 a83b dae8 75be
-0.39179656 -0.2588165 0.08034122 -0.27536932 -0.13037367 0.19049218 0.19747786 0.41465136
-0.309989 -0.7476673 -0.28032288 -2.795114 0.6017192 -0.25206023 0.06854645 0.015777662
-0.2356743 0.5418759 0.20747834 -0.05815346 0.10462825 -0.6217188 -0.10031452 0.1567861
-0.0376435 -0.06915871 -0.4542228 -0.7113169 -1.0396316 -0.98530936 0.3198595 -0.16991211
0.15422949 0.021660523 -0.1433255 0.1326955 2.7449558 0.20950451 -0.075754926 -0.8640469
0.07856978 0.38849032 -0.26013374 0.019507138 -0.34161946 -0.4744946 -1.636891 -0.5383845
0.035581965 -0.55266494 0.09790608 0.20214452 -0.56420565 -0.5897497 2.2382143 0.32028735
-0.16814171 -0.8623135 -0.030045046 0.34929377 -0.15459064 0.10705412 -0.4176212 -0.59832233
-1.2658415 -0.36795628 0.08923545 -0.18551002 0.13411902 0.17193551 -0.38499492 -0.58246696
-0.22020216 -0.24846427 -0.0016374154 -0.4646116 -0.5363008 0.26260805 0.13430142 0.19809754
-0.3531485 -0.65648186 -0.16032939 -2.6656835 0.80867225 -0.30480132 -0.042413495 0.020018633
-0.30005896 0.57591367 0.3879774 0.06023938 0.19208601 -0.40182632 -0.61932945 0.32942942
0.062012047 0.17623621 -0.26595506 -0.7243133 -0.76549906 -1.4405216 0.40534544 -0.11739473
0.0012696217 0.052943572 -0.21199197 0.38039637 -0.23108052 -0.08969726 0.14846268 -0.50273377
0.0559318 0.07447322 0.13944745 0.1614463 -0.3834381 -0.63700646 -0.786637 -2.3524287
0.47996297 -0.2892095 -0.08851246 -0.15796301 -0.12159996 0.262399 2.5348036 0.29097688
-0.29040793 -0.7957599 -0.14178497 0.16027908 -0.22228892 0.03684384 -0.48462197 -0.55963653
-0.35926265 1.1499652 0.041207395 -0.56803024 0.19461383 0.21794371 -0.5017382 -0.71504617
-3.112199 0.16063714 0.28386065 0.4898506 -0.17399395 0.7659513 0.14383677 0.21361211
0.45613477 -0.011187806 -0.24661253 0.79116625 0.35093942 0.47622237 0.09336697 0.08769187
-0.14973348 0.9962696 -0.2687172 -0.45016292 -0.027956855 -0.20168816 -0.63348633 0.23181114
0.011469465 0.36304054 -0.33757174 -0.69049495 -0.5462286 -2.3235729 0.85612494 -0.5800989
0.06895997 -0.21120723 -0.08236302 0.66455865 -0.30529064 -0.2703937 0.24138474 -0.12804191
-0.047347654 0.16610256 0.14556986 0.35228494 -0.18914188 -0.66655487 -0.16797239 -2.4942174
0.44695103 -0.39304036 0.10807769 -0.2146326 -0.1724236 0.6344833 -0.7298189 -0.91320986
-0.036531206 0.07631741 -0.7950349 0.35337785 0.44397363 0.9681685 0.15806204 -0.9872619
-0.89134157 -3.3195918 1.9918389 -0.46725485 -0.17727095 -0.61349887 -0.10229424 1.0488083
-0.051300135 -0.022134805 0.020909853 -0.34784254 0.03918396 0.27529022 0.018882992 0.19246489
-0.3929402 -0.7116445 -0.22501461 -1.9992282 0.53144 -0.13738386 0.046632655 -0.18656296
-0.13833308 0.46606824 2.3721175 0.24508736 -0.1378507 -0.84401214 0.009885078 0.35054347
0.05397739 0.10544765 -0.352527 -0.50776535 -1.5104132 -0.53524345 0.012645778 -0.53930515
0.12295724 0.12670727 -0.56677663 -0.55673534 -0.15263502 -0.058562048 0.0051508606 -0.24014607

fc1.bias f4 [15]
00000000: 351b 103f 2c1e b13e 0d02 c9bc b822 aabd
00000010: bdea de3e 3353 d83d 541d b63e 0518 1abd
00000020: 117d 673e 33af dd3e 8d08 003f e0f3 613f
00000030: 8371 e53e 0fbe 1e3d 588e 033f
0.56291515 0.34593332 -0.02453711 -0.08307403 0.43538466 0.10562744 0.3556925 -0.037620563
0.22606303 0.4329773 0.5001305 0.8826275 0.44813165 0.038755473 0.51389074

fc2.weight f4 [12, 15]
00000000: 8685 1a3f 5663 833e ed26 07bf a820 98be
00000010: dc41 433f 118a e93e 3d3e 913e ce58 1cbf
00000020: 27c4 13c0 4d65 393f daa6 013f 0991 593f
00000030: a441 ee3e 2724 8bbe 4203 133f a3b9 0e3f
00000040: d6a7 f73d 8a6e aebe 4634 adbe 5d20 333f
00000050: 4cb4 f13e e9c7 de3e 8ed8 a9be caa5 19c0
00000060: 03cd 1b3f eefa 1b3f 75f5 3b3f 9200 fb3e
00000070: 96f3 64be 40cf 133f c391 d43e 033a 933e
00000080: f951 e8be 8f50 a0be e578 413f 7b8f 043f
00000090: 2a4e 453e 4791 e9be c382 1ec0 6bef 473f
000000a0: e295 c13e 91df 783f 4e32 923e 5012 b0be
000000b0: 2da4 013f 4ae3 1b3f 5ff8 cb3e 875f e2be
000000c0: 18bb 09bf e096 fa3e 0f91 1d3f 297c d73e
000000d0: d582 0dbf a5dd 1bc0 9003 453f 998b f13e
000000e0: 251c 6a3f 29ea ad3e a6a0 bfbe 913f cd3e
000000f0: 7408 2b3f a7d2 c13e 68a9 bbbe 2348 8bbe
00000100: c1ab e53e 4139 e13e 8924 853e ce8e 11bf
00000110: d5a4 0dc0 5c75 063f 4792 ed3e 176e 423f
00000120: 97a1 b43e d792 c8be e043 cb3e ae31 0f3f
00000130: 0b6e 9d3e da4a f9be affd 05bf 96f9 1b3f
00000140: 560e a73e c078 ce3e c8e0 01bf beb1 1bc0
00000150: faee 223f 47a3 913e b911 453f c0d0 e93e
00000160: 1b73 18be 825b bf3e 58a0 d63e 4bbd a13e
00000170: cd35 99be db40 99be 596f ed3e 1c3f a33e
00000180: e7bf 613e acaf 0fbf fd2f 12c0 e5f4 323f
00000190: 2420 0b3f 5de9 563f 4f48 ad3e 78cf 84be
000001a0: f64c c53e b607 3a3e 2c7e 50be a0d0 0dc0
000001b0: e4ca a6bf cb48 ad3e a884 91be 8505 353e
000001c0: 5ea3 b2bf 5d78 2340 ea33 a93e 3fec 1c3e
000001d0: 473f ee3e 8903 7f3e 9127 eebf 151c 5e3e
000001e0: 0d10 363e 42f3 ffbd a348 1bc0 09a6 d0bf
000001f0: f479 ab3e 6fe9 54bd 1f97 cb3d 0fb9 cdbf
00000200: 8709 1240 a442 923e a75a 953e cd53 2a3f
00000210: c383 1ebd f6ed efbf 0a67 593d faa4 053f
00000220: 58e5 c63e 50b0 cbbe ef99 9bbe fd2d 053f
00000230: 35e0 da3e 4343 7d3e e4d4 02bf b466 15c0
00000240: 582a fd3e 962f e33e c54f 383f 4357 c83e
00000250: b787 b3be 4043 d83e 703d d13e 43d1 383e
00000260: a9a5 03be 6241 d5bd 7743 253f 205c 0c3f
00000270: 724f b33e e005 33be 5866 13c0 a510 123f
00000280: d4ff ee3e bb7e 413f 84e8 173f 9ebe 8dbe
00000290: 1c6d f83e 79ce 883e 3b57 18be a86b 24c0
000002a0: 931a e0bf 88c7 733e 6374 59be 56ee 1abd
000002b0: 54b0 efbf cb2e 1b40 55c9 b03e 9d3e 5c3e
000002c0: 9350 413f 7b37 613d 380a 05c0 6daa d33d
0.6035999 0.25661725 -0.5279377 -0.29712415 0.7627237 0.4561315 0.28367797 -0.61073005
-2.3088472 0.724202 0.5064522 0.8498693 0.46534455 -0.2717602 0.57426846 0.5575201
0.12092559 -0.3406871 -0.33828944 0.6997126 0.47207868 0.43511894 -0.3317303 -2.400744
0.608597 0.60929763 0.7342141 0.49023873 -0.22358546 0.57738113 0.41517457 0.28755197
-0.4537504 -0.3131146 0.75575095 0.51781434 0.19268098 -0.4561865 -2.476731 0.780997
0.37809664 0.97216135 0.28554004 -0.3438897 0.5064114 0.6089369 0.3983793 -0.44213507
-0.5380111 0.48943233 0.61549467 0.42086914 -0.5527776 -2.435403 0.7695856 0.47176817
0.91449195 0.33967713 -0.37427253 0.4008756 0.66809773 0.37856027 -0.36652684 -0.27203473
0.448576 0.43988994 0.26004437 -0.5685853 -2.2131855 0.52522826 0.46400663 0.75949234
0.35279533 -0.3917453 0.39700222 0.5593518 0.3074802 -0.4868992 -0.52340215 0.6092771
0.32628125 0.403265 -0.50733614 -2.4327235 0.636459 0.28444883 0.7698017 0.45667076
-0.14887659 0.37374502 0.41919208 0.31589732 -0.2992386 -0.29932293 0.46374014 0.31884086
0.22045861 -0.5612743 -2.284179 0.6990493 0.5434592 0.83949834 0.3384423 -0.25939536
0.3853528 0.18167004 -0.20360631 -2.2158585 -1.3030667 0.338446 -0.2842152 0.17677887
-1.3956106 2.5542214 0.3304742 0.15324496 0.46532652 0.24903692 -1.8605825 0.216904
0.1777956 -0.124975696 -2.4263084 -1.630067 0.3349148 -0.051980432 0.099409334 -1.60721
2.2818315 0.28566468 0.29170725 0.6653412 -0.038699877 -1.8744495 0.05307678 0.5220486
0.3884685 -0.39782953 -0.3039088 0.520233 0.4274918 0.2473269 -0.51106095 -2.3343935
0.49446368 0.44372243 0.7199672 0.39129075 -0.3506448 0.42238808 0.40867186 0.18048577
-0.12856163 -0.104128614 0.6455607 0.5482807 0.3502155 -0.1748271 -2.3031216 0.5705665
0.46679556 0.75584 0.59339166 -0.27684492 0.48520744 0.26720026 -0.14877026 -2.5690708
-1.750811 0.23806584 -0.21235804 -0.03782495 -1.8725686 2.424731 0.34528604 0.2150826
0.7551357 0.05498455 -2.0787487 0.103352405

fc2.bias f4 [12]
00000000: e088 e23e ceca 063f 6b6a b83e c5b0 933e
00000010: 3324 fe3e d616 793e e69a e43e 5326 073f
00000020: 536d 133f fd67 f33e bd03 123f ee08 373f
0.44245052 0.52653205 0.3601869 0.28845802 0.49636993 0.24325117 0.44649428 0.52792853
0.5758869 0.47540274 0.57036954 0.71498

fc3.weight f4 [9, 12]
00000000: 8024 9bbf 54f6 aabf 368e a6bf 6e22 89bf
00000010: 47d7 9dbf 330f 9fbf 420c a5bf 0854 413e
00000020: 3200 b63e 8939 a6bf 0787 a7bf dfdd 223f
00000030: 9592 adbf 2c75 b2bf 3ee7 aebf 5f60 8fbf
00000040: 8147 b6bf 6629 a5bf c7d0 96bf 7e62 943e
00000050: b46b d23e 5866 a5bf 1b1b b0bf ea87 373f
00000060: abea afbf a17f adbf 38a7 8abf efd9 99bf
00000070: 1847 babf 6db1 95bf 278a 94bf a9de 193e
00000080: 1b64 dd3e 19f3 98bf 5265 93bf c6bc 033f
00000090: 28c5 283f 896e 513f 2cee 583f 3ba0 0c3f
000000a0: 7122 523f 89b9 143f 3983 3c3f aace 10c0
000000b0: 78ee 1fc0 0c61 363f 0eb4 283f d492 25c0
000000c0: 83c6 a5bf a478 82bf 09f7 a1bf 8f2e 9ebf
000000d0: 1c24 77bf 06d2 8cbf a0e9 9bbf 550d 1a3e
000000e0: 0a9f 4b3e c63e 7fbf afb1 89bf 1b7d 7e3e
000000f0: ecfd 503f 2a00 6c3f 84fb 6d3f a2b2 593f
00000100: 8833 543f 66f6 583f 87ba 313f 9658 29c0
00000110: cf43 32c0 4706 6e3f 50e6 203f 8c57 44c0
00000120: 0c1d babf b3ae abbf fe4a b6bf 9916 a8bf
00000130: 0eb3 acbf fefe abbf f2ba b0bf 72c5 a13e
00000140: 863c 183f a822 aebf 8818 8abf 8cee 103f
00000150: 5e17 393f baa6 403f cce3 613f 5e29 743f
00000160: 34ce 363f bfd2 843f 28ef 363f f4d5 2ec0
00000170: 4ae8 38c0 6506 603f d91f 553f e400 3cc0
00000180: 998e 97bf 03d2 b2bf 850c afbf fe0b 94bf
00000190: a972 afbf 1ac6 a4bf f287 85bf 5db9 bd3d
000001a0: ba93 cc3e d31e 9dbf 081f 8cbf ffb6 0d3f
-1.2120514 -1.3356423 -1.3012149 -1.0713632 -1.2331322 -1.2426513 -1.2894366 0.18879712
0.35547024 -1.2986308 -1.3088082 0.636198 -1.3560358 -1.3942008 -1.366432 -1.1201285
-1.4240571 -1.2903259 -1.1782464 0.28981394 0.41097796 -1.2921858 -1.3758272 0.71691763
-1.374349 -1.3554574 -1.0832281 -1.2019633 -1.4552946 -1.1694771 -1.1604661 0.15026344
0.43240437 -1.1949188 -1.1515296 0.5145992 0.65925837 0.8180929 0.8473842 0.5493199
0.82083803 0.58095604 0.7363773 -2.2626138 -2.49893 0.7124183 0.6589974 -2.5870867
-1.2951206 -1.0193067 -1.2653514 -1.2357959 -0.96539474 -1.1001594 -1.2180672 0.15044148
0.19884887 -0.9970516 -1.075735 0.24852411 0.81637454 0.9218775 0.9296191 0.850382
0.8289113 0.84750974 0.69425243 -2.6460319 -2.7853887 0.9297833 0.6285143 -3.0678434
-1.4540114 -1.3412689 -1.4241636 -1.3131896 -1.3492143 -1.3437192 -1.3807051 0.3159595
0.5946735 -1.3604326 -1.0788736 0.56613994 0.7230128 0.75254405 0.88238215 0.9537562
0.7140839 1.0376815 0.71458673 -2.7318087 -2.8891778 0.8750976 0.8325172 -2.9375544
-1.1840392 -1.397034 -1.3675696 -1.156616 -1.3706867 -1.2872956 -1.0432112 0.09263871
0.39956456 -1.2275032 -1.094697 0.55357355

fc3.bias f4 [9]
00000000: 10c7 9bbf 96a1 97bf 7e94 abbf f844 333f
00000010: 9812 74bf 3331 ab3e d5d7 a4bf 8601 f73e
00000020: 6c4e b9bf
-1.2170124 -1.1846187 -1.3404691 0.7002711 -0.9534087 0.33435974 -1.2878367 0.4824335
-1.4477057

fc4.weight f4 [6, 9]
00000000: 78bf bebf 5ee2 acbf e772 adbf 8fe9 cb3f
00000010: d9ad 9ebf 584d e03f 74b6 c1bf adb6 ed3f
00000020: bec7 b3bf 59ce 94bf e8c1 a8bf cd7c c2bf
00000030: ad7a cc3f fd45 91bf 7768 e73f 8546 92bf
00000040: d4a2 d53f 1de1 bbbf 6335 c4bf 5d8a 9fbf
00000050: 0188 b6bf 6bfc b23f ec51 9bbf f340 e63f
00000060: 8d57 bdbf 6ec4 eb3f 68dd b6bf 1ae2 873f
00000070: 7e05 813f fcc4 823f ff68 d4bf 65e9 433f
00000080: c4ad c9bf c2d0 393f a596 cebf 00ad 623f
00000090: 7de3 2a3f b39a d43e a081 463f 2789 a8bf
000000a0: 1707 f23e 2513 b0bf ba5f 063f 4288 b2bf
000000b0: 00cd d93e 5c0d bebf 91f7 c7bf 4d31 a4bf
000000c0: 54c5 ae3f 8fbf 90bf e909 dd3f ddc5 babf
000000d0: 652b c33f 639f a1bf
-1.4902182 -1.3506582 -1.355069 1.5930651 -1.2396804 1.7523603 -1.5133805 1.8571373
-1.4045331 -1.1625472 -1.3184175 -1.5194336 1.5974938 -1.1349484 1.8078755 -1.1427771
1.6690316 -1.4678074 -1.5328792 -1.24641 -1.4260255 1.3983282 -1.2134376 1.7988571
-1.4792343 1.841932 -1.4286318 1.0615876 1.0079801 1.0216365 -1.6594542 0.76528007
-1.5756154 0.72584164 -1.6139723 0.8854523 0.6675337 0.41524276 0.7754154 -1.3166856
0.47271034 -1.3755842 0.5248982 -1.3947833 0.42539215 -1.4847827 -1.5622426 -1.2827545
1.365397 -1.1308459 1.7268649 -1.4591633 1.5247618 -1.2626766

fc4.bias f4 [6]
00000000: 6738 9e3f dafa a43f a260 9c3f d75b a3bf
00000010: 9d12 8abf b6c6 a43f
1.2360963 1.2889054 1.221699 -1.2762402 -1.078693 1.2873142

fc5.weight f4 [3, 6]
00000000: 1f16 de3f add8 e23f fc55 ce3f b78c e1bf
00000010: 6e17 c4bf 22d7 e03f 0526 2b3e 17e9 f8bc
00000020: 1be6 2f3e 6dfb ebbd 7ef1 b23e 892f 97be
00000030: 0189 c4be b807 0bbf 6a72 27bf 8012 133f
00000040: 9bcd f13e 4bae 9bbe
1.7350501 1.7722374 1.611999 -1.7621068 -1.531965 1.7565653 0.16713722 -0.030384583
0.17177622 -0.11522565 0.3494987 -0.29528454 -0.38385776 -0.5430865 -0.65408957 0.57450104
0.47227177 -0.30406412

fc5.bias f4 [3]
00000000: f176 8c3f f757 2c3f f1ea 4fbd
1.0973798 0.67321724 -0.050761167
