results/july.pt (torch, 3351 bytes, 6 tensors)

fc1.weight f4 [12, 18]
00000000: 692a 1b3f 6a88 f23d 7b5d b1bf 720e 37bf
00000010: 1f26 7bbf dd51 ff3e 55dc d93e 1867 993f
00000020: f4a2 35bf ae1f 3abf 9437 a7be 2471 33bf
00000030: edfe 783f 1b2e 00bf 36a0 153f eada ba3d
00000040: e86b c0be d313 1c3e bfe6 b33f 7a22 263e
00000050: 887d cbbf 0c0b 2cbf 475d abbf 901f 013f
00000060: c2a3 063f c85b 8d3f cf66 38bf c27c 53bf
00000070: 5950 a6bf 090a 3bbf b682 643f d950 8cbf
00000080: 2b04 043f 43c4 9e3d 5271 c9be 8cb2 2d3e
00000090: fa3c fc3f 8dfd 7cbd 41be fdbf 2ad2 4ebf
000000a0: cd46 adbf ac88 f13e ec75 eb3e 3db2 833f
000000b0: a5d4 4dbf 01f7 6bbf cac7 c9bf 1b18 4ebf
000000c0: 3444 8e3f 3dd3 99bf 4d44 e63e ee30 62bd
000000d0: 8504 afbe e60d 553e 43c5 bb3d 72c8 283e
000000e0: 7de1 a8be 008b 29bf f760 3cbf c36b e73e
000000f0: 04ec 053f d472 8c3f d2de b4be 23ab 37bf
00000100: 8e13 83be f3c7 26bf 58e4 613f 4488 0cbf
00000110: d6df d83e 7fe3 c7bc 6928 b2be 7aaa 1f3e
00000120: 5617 213f ff28 283e 3062 babf 87d9 36bf
00000130: 8c7e 80bf 559f 093f 4806 e23e 3553 893f
00000140: 635b 38bf 6c35 47bf 273f 97be d0cc 38bf
00000150: 7f25 7b3f 627f 13bf 4bda f03e d213 703b
00000160: d42f cbbe 78a5 1a3e 03cb 173f 9341 5b3e
00000170: 1023 a8bf 949a 2dbf 4ada 71bf 1aec 063f
00000180: 0c3a d53e d566 8b3f b939 2bbf c0f1 3bbf
00000190: 790c a9be 13b9 31bf c52d 733f 0271 0cbf
000001a0: 1036 fa3e 2afe 8a3d 2754 babe b6b8 343e
000001b0: bdf0 a73d 2e53 69bc 5729 b9be a0a9 40bf
000001c0: bb2d 32bf 07f7 e73e 026c db3e bd80 8f3f
000001d0: f7eb 2abf 1c04 2fbf b666 acbe 97e5 20bf
000001e0: 038a 853f d206 1bbf f76f d73e a32a b83b
000001f0: ea72 a1be 0abc 193e 242f 35c1 d40a 1cbe
00000200: 3d4f edbe 1223 f9be f616 70c0 2f06 583f
00000210: 9636 3f3f 5592 db3f 4299 c0be 8685 e63f
00000220: 425d d9be 8926 f33f 056e d93f da3e 04bf
00000230: ff5f 213f d41a 9a3d ab64 14bf 9570 bc3e
00000240: 8458 973d c435 233d 0478 aabe 4ff1 3bbf
00000250: a384 32bf 727b ff3e 4d04 dd3e 2444 933f
00000260: e37a acbe 8599 31bf 2464 adbe 9b78 20bf
00000270: e4ef 713f f72b 89bf 2722 ec3e 8d3e ee3b
00000280: 51f6 99be b41c b13d 3d59 3d3f e0cb c73c
00000290: 5d67 b5bf c1e5 2abf 53b4 80bf b5e0 e93e
000002a0: eca2 d53e 5911 953f ae1a 3dbf b3c3 2fbf
000002b0: 0fee 9ebe 917e 29bf 3c07 863f f35c 02bf
000002c0: 937d dc3e b026 97bc 5095 b9be 4523 543e
000002d0: 53c0 df3f 790e 873d fcd2 eabf 26bc 47bf
000002e0: 2a34 8fbf ad2e e73e 72ee d13e 2d80 923f
000002f0: 2507 47bf 95ea 6bbf 1f26 bebf 73f7 50bf
00000300: 776d 863f 55c2 96bf 7921 ee3e d07f 6e3d
00000310: 8d60 c1be 6e3d ed3d 8ea6 34be ccb4 213e
00000320: fed1 b5be 63fd 33bf 65e0 2fbf e482 d73e
00000330: 471c e63e cfe1 993f 9593 8cbe 52a5 3fbf
00000340: 896f a1be f493 f83e 45c2 5c3f 8338 febe
00000350: a057 073f c591 ef3d 0d8f d8be 3ad6 023e
0.6061159 0.11842425 -1.3856653 -0.71506417 -0.98105043 0.49867144 0.42550912 1.1984587
-0.7095177 -0.7270459 -0.3265959 -0.70094514 0.97263986 -0.5007035 0.5844759 0.09123786
-0.37582326 0.15241937 1.4054793 0.1622409 -1.5897684 -0.67204356 -1.3387841 0.50438786
0.52593625 1.1043634 -0.72031873 -0.8261224 -1.299327 -0.7306219 0.8926195 -1.0962173
0.5156886 0.07752278 -0.3934427 0.16962641 1.9706109 -0.061765242 -1.9823686 -0.80789435
-1.3537232 0.47174585 0.45988405 1.0288769 -0.80402595 -0.92173773 -1.5764096 -0.8050553
1.1114564 -1.201759 0.44973984 -0.055222444 -0.34183136 0.20806083 0.09168484 0.16482714
-0.32984534 -0.6622772 -0.73585457 0.45199403 0.52313256 1.0972543 -0.35326248 -0.7174551
-0.25600857 -0.6514885 0.8823905 -0.54895425 0.42358273 -0.02440047 -0.34796456 0.15592375
0.6292623 0.16421889 -1.4561214 -0.7142567 -1.0038619 0.53758746 0.44145417 1.0728518
-0.72014445 -0.7781589 -0.2954037 -0.7218752 0.9810409 -0.57616246 0.47041544 0.0036632908
-0.39684927 0.15102184 0.59294146 0.21411733 -1.31357 -0.6781399 -0.9447371 0.5270401
0.4164585 1.0890757 -0.6688495 -0.73415756 -0.33017328 -0.69423026 0.94991714 -0.54859936
0.4886937 0.06786759 -0.36392328 0.17648587 0.08200214 -0.014241023 -0.36164352 -0.7525883
-0.6960103 0.45305654 0.4285584 1.1211163 -0.66766304 -0.68365645 -0.33672112 -0.62850326
1.0432743 -0.6055728 0.4207761 0.005620317 -0.31532985 0.15013137 -11.324009 -0.15238506
-0.46349517 -0.4865957 -3.7514014 0.84384435 0.74692667 1.7154032 -0.37616926 1.8009498
-0.42453963 1.8996135 1.69867 -0.51658404 0.63037103 0.07524648 -0.5796611 0.36804643
0.0738993 0.039846197 -0.3329469 -0.7341508 -0.6973364 0.4989887 0.43167344 1.150517
-0.33687505 -0.6937488 -0.33865464 -0.6268403 0.9450667 -1.0716542 0.46119806 0.00727064
-0.30070737 0.08648053 0.7396429 0.024389207 -1.4172169 -0.66756827 -1.005503 0.4567925
0.41725862 1.1645919 -0.73868835 -0.6865799 -0.31041 -0.6620875 1.0470958 -0.5092308
0.43064556 -0.018451065 -0.3624673 0.2071658 1.7480568 0.06594557 -1.8345637 -0.78021467
-1.1187794 0.45152798 0.41002232 1.1445366 -0.77745277 -0.9215482 -1.4855384 -0.8162758
1.0502156 -1.1778055 0.46509913 0.05822736 -0.37768975 0.115839824 -0.1764166 0.15791625
-0.35511774 -0.7030851 -0.68701774 0.4209205 0.4494345 1.2022036 -0.27456346 -0.74861634
-0.31530407 0.4855038 0.8623393 -0.4965249 0.5286808 0.11697725 -0.4229664 0.12777033

fc1.bias f4 [12]
00000000: 414f 113f 8acf d93e 3308 c43e ca17 1d3f
00000010: 10d5 123f 1911 0a3f e235 153f f0df 0c3f
00000020: 4072 173f ab25 003f 2583 d53e 9155 2e3f
0.56761557 0.42541152 0.38287506 0.61364424 0.5735636 0.5393234 0.58285344 0.550292
0.59158707 0.50057477 0.41701618 0.68099314

fc2.weight f4 [6, 12]
00000000: f29b 0fc0 33f4 13c0 4c78 e6bf 83a7 11c0
00000010: fce5 05c0 3719 0ec0 853f f7bf bdc5 d03f
00000020: cd74 04c0 5658 f6bf 1834 afbf a90b 3fc0
00000030: 1404 af3f 0cae 0040 1a54 2940 5c97 9a3f
00000040: fa18 aa3f 0054 a73f 19e8 8c3f 1be9 41c1
00000050: 1177 9d3f 3b02 c33f 1073 0c40 ffea a43f
00000060: 6ce6 2bc0 7c62 14c0 c3c0 80bf 4b89 2ec0
00000070: 5fc9 1cc0 7f0d 2ac0 200c 07c0 b28a c93f
00000080: fa21 23c0 aaa0 05c0 2e74 81bf ad85 6bc0
00000090: 9253 a53f 76ea f93f a46d 5240 5c61 8d3f
000000a0: 9763 a93f c7a3 9f3f f1f4 a13f 2d5d 47c1
000000b0: c5ca 9b3f 7513 d73f b478 2340 2d56 743f
000000c0: 4cd3 c93f 188c 0240 4eb2 1340 0dd5 973f
000000d0: 7b6b b63f ad44 c43f 354b 923f 974a 3cc1
000000e0: 79c8 a33f d7be b83f 80a4 f83f 95fc b03f
000000f0: 9e1f bb3f 4cf0 0140 ad14 4040 9c0c 8a3f
00000100: 36a0 aa3f 8e3b ae3f c2c9 a43f 506e 46c1
00000110: 0bdd 983f 6df4 d23f 7f98 1740 aa49 903f
-2.2438931 -2.3117797 -1.8005462 -2.275849 -2.0921621 -2.220289 -1.931626 1.6310345
-2.069629 -1.9245708 -1.3687773 -2.9850867 1.367312 2.010623 2.6457582 1.2077441
1.3288872 1.307251 1.100833 -12.1194105 1.2301961 1.5235056 2.1945229 1.2884215
-2.6859388 -2.318511 -1.0058826 -2.7271297 -2.4497907 -2.6570737 -2.110115 1.5745451
-2.5489488 -2.0879312 -1.011358 -3.680034 1.2916129 1.9524677 3.287942 1.1045337
1.3233517 1.2471856 1.2652875 -12.460248 1.2171255 1.6802813 2.5542421 0.95443994
1.5767608 2.0398006 2.3077579 1.1861893 1.425155 1.5333458 1.1429201 -11.76821
1.2795554 1.443324 1.9425201 1.3827082 1.4619024 2.0302916 3.001262 1.0785098
1.3330142 1.3611925 1.2874072 -12.401932 1.1942457 1.6480843 2.3686826 1.127248

fc2.bias f4 [6]
00000000: 427e 7bc0 14c8 d03f cdab 55c0 538d 8a3f
00000010: 01e8 d33f b2ba 863f
-3.9295812 1.6311059 -3.338611 1.0824379 1.6555177 1.0525725

fc3.weight f4 [3, 6]
00000000: 39ec 0bc0 560b ab40 7305 f1bf 9425 b140
00000010: 2473 a040 be07 af40 93d2 aa40 1c10 ed3e
00000020: d9d4 81bf e85f 583d a3d1 b3be 0799 1e3d
00000030: 80bb 2ac0 b54d 863e 9b30 87c0 f864 fcbe
00000040: a60f 433f 0f4c 33be
-2.186293 5.345134 -1.8829788 5.535837 5.0140553 5.469695 5.338205 0.46301353
-1.0143081 0.05282584 -0.35120878 0.038720157 -2.667694 0.2623116 -4.2246833 -0.49295783
0.7619575 -0.17509483

fc3.bias f4 [3]
00000000: 6526 3440 1ebd c53f 5e67 9440
2.8148434 1.5448339 4.637618
