results/june.pt (torch, 3351 bytes, 6 tensors)

fc1.weight f4 [12, 18]
0	0x3f35b4cb	0.70978993
1	0x3ee123ae	0.43972534
2	0x3ec6ca04	0.38826
3	0x3f31a4b9	0.6939197
4	0xbcefdd5a	-0.029280353
5	0xbe833671	-0.25627473
6	0xbf62525a	-0.8840691
7	0x3e4da3f1	0.2008207
8	0x3f4709e1	0.7774945
9	0x3f43d57c	0.76497626
10	0x3efa0f91	0.4884
11	0x3f22f01f	0.63647646
12	0xbf84a658	-1.0363264
13	0xbd3196b9	-0.04335663
14	0xbf180e07	-0.59396404
15	0x3d71e856	0.059059463
16	0x3f02b181	0.510521
17	0xbf6fd6a6	-0.936869
18	0xbf98adac	-1.1928
19	0xbf00f5c5	-0.50375015
20	0xbeee4742	-0.4653874
21	0xbf1bc582	-0.6084825
22	0xbd84fab8	-0.06493133
23	0x3eac9aa8	0.33711743
24	0x3f72d39e	0.9485415
25	0xbd8505ce	-0.06495248
26	0xbf4181be	-0.75588596
27	0xbf960507	-1.1720284
28	0xbf1d464e	-0.614354
29	0xbf2577d5	-0.64635974
30	0x3f8c45c7	1.0958794
31	0xbd83e08e	-0.06439315
32	0x3f1e9431	0.6194487
33	0xbd4a381a	-0.04936991
34	0xbede7456	-0.43448132
35	0x3f7700af	0.9648542
36	0xbf9138f6	-1.1345508
37	0xbf010ccc	-0.5041015
38	0xbec69b97	-0.3879058
39	0xbf159b3b	-0.5843999
40	0xbd744501	-0.05963612
41	0x3ea2ca0c	0.31794775
42	0x3f6c1bb3	0.92229766
43	0xbe83e9ff	-0.25764462
44	0xbf59f926	-0.85145795
45	0xbf97fd66	-1.1874206
46	0xbe4eb55a	-0.20186368
47	0xbf294643	-0.66122836
48	0x3f897128	1.0737658
49	0xbd64669e	-0.055761926
50	0x3f32d62e	0.6985806
51	0xbccc2f21	-0.024924817
52	0xbf0b7bd3	-0.54485816
53	0x3f6fabeb	0.936217
54	0xbf9df3c0	-1.2340012
55	0xbef3ab17	-0.4759147
56	0xbec2c778	-0.38042808
57	0xbf25e596	-0.64803445
58	0xbc22946e	-0.009923084
59	0x3f075ef9	0.5287929
60	0x3f7a2b65	0.97722465
61	0xbdbcc182	-0.09216596
62	0xbf8b1e15	-1.0868555
63	0xbf927df2	-1.1444685
64	0xbf4df704	-0.8045504
65	0xbf2537e8	-0.6453843
66	0x3f845aa1	1.0340158
67	0xbeef4763	-0.4673415
68	0x3f253239	0.6452976
69	0xbd85e42c	-0.06537661
70	0xbf5a8d74	-0.8537209
71	0x3f85b5f7	1.0446156
72	0x3ffe38bb	1.9861063
73	0x3f1705b2	0.58993065
74	0x3f4184f0	0.7559347
75	0x3f47e614	0.78085446
76	0x3ee8a390	0.45437288
77	0xbe730ba7	-0.23734914
78	0xbf63e696	-0.8902372
79	0x3e0195ff	0.12654875
80	0x3f18dd26	0.59712446
81	0x3f2925f9	0.66073567
82	0xbd3bb308	-0.045825034
83	0x3f2a91d9	0.66628796
84	0xbf88ae1e	-1.0678136
85	0xbf69df69	-0.9135652
86	0xbf41dd7c	-0.75728583
87	0x3d186231	0.037203018
88	0x3eede274	0.46461833
89	0xbf070784	-0.5274584
90	0xbf96a559	-1.176921
91	0xbef635e4	-0.4808799
92	0xbec062e3	-0.37575445
93	0xbf3b7a48	-0.7323346
94	0xbd705332	-0.05867309
95	0x3e4dc7c3	0.20095734
96	0x3f6f90a3	0.93580073
97	0xbe20a805	-0.15689094
98	0xbf3a41ae	-0.7275647
99	0xbf9dcd86	-1.2328346
100	0xbe66ca37	-0.22538076
101	0xbf21b231	-0.63162524
102	0x3f8c98e2	1.0984156
103	0x3bbc6d7b	0.005750356
104	0x3f34ad47	0.705769
105	0xbda96bc9	-0.082725115
106	0xbefda2d5	-0.49538293
107	0x3f72307d	0.9460524
108	0xbf88a90c	-1.0676589
109	0xbf0b78cd	-0.544812
110	0xbed7f5ff	-0.42179868
111	0xbf29191f	-0.66053957
112	0xbdac02e4	-0.08398989
113	0x3ef49bcf	0.47775123
114	0x3f64c344	0.8936045
115	0xbda76dd7	-0.08175247
116	0xbf480a1e	-0.7814044
117	0xbf97abc1	-1.184929
118	0xbe8bc4dd	-0.27298632
119	0xbf3cd336	-0.7375978
120	0x3f8f5e2c	1.1200614
121	0xbea2ed2e	-0.3182158
122	0x3f25d2c1	0.6477471
123	0xbd8a4016	-0.06750505
124	0xbf1158f7	-0.56776375
125	0x3f8511d9	1.0396072
126	0xbf964c47	-1.1742028
127	0xbf11d4b9	-0.56965214
128	0xbebe20c4	-0.37134373
129	0xbf1d3c4f	-0.6142015
130	0x3aeb87f7	0.0017969598
131	0x3ee8ab13	0.4544302
132	0x3f672f59	0.9030662
133	0xbdeae947	-0.11470275
134	0xbf3e7919	-0.7440353
135	0xbf8b4183	-1.0879368
136	0xbf55feb3	-0.83591765
137	0xbf3d319f	-0.7390384
138	0x3f85a27a	1.0440209
139	0xbebf170c	-0.3732227
140	0x3f14599e	0.57949245
141	0x3d3a2c0e	0.04545217
142	0xbf4742c2	-0.7783624
143	0x3f772652	0.9654285
144	0xbfae496f	-1.361616
145	0xbed9ffc4	-0.42577946
146	0xbeb821fc	-0.35963428
147	0xbf28d682	-0.6595231
148	0x3d8d6faf	0.069060676
149	0x3d85e72e	0.06538235
150	0x3f6868eb	0.9078509
151	0xbda76e30	-0.081753135
152	0xbf47197c	-0.7777326
153	0xbf9737c0	-1.1813889
154	0xbf417acc	-0.75578
155	0xbf181157	-0.5940146
156	0x3f8a4989	1.0803691
157	0x3ec2d0c1	0.38049892
158	0x3f3726e1	0.715437
159	0x3cd3c025	0.025848458
160	0xbec69577	-0.38785908
161	0x3f3fa597	0.74862045
162	0xc0d123d5	-6.535624
163	0xbe9534d1	-0.29141858
164	0xbedd84c3	-0.43265352
165	0x3f833cb1	1.0252897
166	0x3c9fce43	0.019507533
167	0x3e92334b	0.28554758
168	0xbf5b5d23	-0.8568899
169	0x3e3397ff	0.1753845
170	0x3f46d67c	0.7767103
171	0xbfe62f43	-1.7983173
172	0xbe96425b	-0.293475
173	0x3f84bbde	1.0369833
174	0x3f20b08c	0.6276939
175	0x3fed86f9	1.8556815
176	0x3ec9085d	0.39264193
177	0xbf0075d9	-0.5017982
178	0x3fa717e9	1.3054172
179	0x3f1bcab6	0.6085619
180	0xbf9adb42	-1.2098162
181	0xbef8ecb3	-0.48618087
182	0xbebf95d4	-0.37418997
183	0xbf2456e5	-0.6419509
184	0x3c6648e0	0.014055461
185	0x3ed3294d	0.41242447
186	0x3f6032a7	0.8757729
187	0xbdb6f2fc	-0.08933064
188	0xbf483cca	-0.78217757
189	0xbf93a260	-1.1533928
190	0xbf5b5571	-0.8567725
191	0xbf1ae532	-0.60505974
192	0x3f87417f	1.0566863
193	0xbe823600	-0.25431824
194	0x3f184f22	0.5949575
195	0x3c3dd02f	0.011585279
196	0xbf0a3dc4	-0.54000497
197	0x3f862ec7	1.0483025
198	0xc12f56f0	-10.958725
199	0xbf3b70da	-0.7321907
200	0xbed8195a	-0.42206842
201	0xbc0f8469	-0.008759596
202	0x3c86478b	0.016391536
203	0x3ed1d591	0.4098325
204	0x3fc4666c	1.5343757
205	0x3dec31dd	0.11532948
206	0xbf969117	-1.1763028
207	0xbd575f77	-0.052581277
208	0xbf25985a	-0.64685595
209	0xbf9c6872	-1.2219374
210	0x3f795a7b	0.9740369
211	0xbf9d23b2	-1.2276518
212	0x3e88f35a	0.26748163
213	0xbe21fdc5	-0.15819462
214	0xbf9d1c3f	-1.2274245
215	0x3f7169f1	0.9430228

fc1.bias f4 [12]
0	0xbf96e00c	-1.1787124
1	0x3f92ff2e	1.1484125
2	0x3f946c5c	1.1595569
3	0x3f8f64e4	1.1202664
4	0xbf44508b	-0.766854
5	0x3f9cbfd3	1.224604
6	0x3f92dcee	1.1473672
7	0x3f887dff	1.0663451
8	0x3f905b21	1.127781
9	0x3f2c5571	0.67317873
10	0x3f8c2e4c	1.0951629
11	0x3f9aff96	1.2109249

fc2.weight f4 [6, 12]
0	0x3fd3eba1	1.6556283
1	0xc013979b	-2.3061283
2	0xc0115481	-2.2707827
3	0xc00b374e	-2.1752505
4	0x40b3c589	5.617863
5	0xc012e839	-2.2954237
6	0xbffbc8a1	-1.9670602
7	0xc01340b7	-2.3008249
8	0xc045c240	-3.089981
9	0xbfb9ac5b	-1.4505724
10	0xc00f286a	-2.2368417
11	0x3fea082b	1.8283743
12	0x3fa24582	1.2677462
13	0xbfe8c516	-1.8185146
14	0xbff86ded	-1.9408547
15	0xbff3d1b7	-1.9048375
16	0x40c9b62c	6.303488
17	0xbfe812aa	-1.8130696
18	0xbfbc1b73	-1.4695877
19	0xbff13084	-1.8842931
20	0xc027740f	-2.6164587
21	0xc0091cfc	-2.142394
22	0xbfd0c64b	-1.6310514
23	0x3f742c77	0.9538035
24	0xbfadc10f	-1.3574542
25	0x3fb7b875	1.4353167
26	0x3fbaa48a	1.4581463
27	0x3fcde0cd	1.6084229
28	0xbffa4aab	-1.9554037
29	0x3fb83db4	1.439383
30	0x3fbdf967	1.4841737
31	0x3fc08d60	1.5043144
32	0x3fb41e30	1.4071712
33	0xc0d73226	-6.7248716
34	0x3fb5e576	1.4210651
35	0xc1017ed8	-8.093468
36	0xbfbec514	-1.4903893
37	0x3fc1a6e2	1.5129054
38	0x3fcacbd1	1.584345
39	0x3fc069a4	1.5032239
40	0xc059640e	-3.3967319
41	0x3fbfa9bf	1.4973677
42	0x3fb5f728	1.4216051
43	0x3fc2191c	1.5163913
44	0x3fd04612	1.6271384
45	0xc08c27da	-4.3798647
46	0x3fbf4a7f	1.4944609
47	0xc1024ec8	-8.144234
48	0xbfcb4874	-1.5881486
49	0x3fda1d8b	1.7040266
50	0x3fc53593	1.5406975
51	0x3fba82e8	1.45712
52	0xc073172f	-3.79829
53	0x3fd54d14	1.6664147
54	0x3fca06d2	1.5783331
55	0x3fbf274e	1.493387
56	0x3ff44a06	1.908509
57	0xc078322f	-3.878063
58	0x3fcdece8	1.6087923
59	0xc0faa60c	-7.8327694
60	0xbfc0e2f3	-1.506926
61	0x3fd817cc	1.6882262
62	0x3fc815d6	1.5631664
63	0x3fea39c9	1.8298885
64	0xbf1a77ff	-0.6033935
65	0x3fc05ff2	1.502928
66	0x3fe75fdd	1.807613
67	0x3fee21f1	1.8604108
68	0x3fb1ee86	1.3900917
69	0xc1013855	-8.076253
70	0x3fea24c7	1.8292474
71	0xc111bf26	-9.109167

fc2.bias f4 [6]
0	0xbfa88220	-1.3164711
1	0xbf9defaf	-1.2338771
2	0x3f725681	0.94663244
3	0x3fa148ea	1.2600377
4	0x3fbc4f99	1.4711791
5	0x3f33bd0f	0.70210356

fc3.weight f4 [3, 6]
0	0xbfcfc8b8	-1.623313
1	0xbfc943e6	-1.5723846
2	0x40d32ed4	6.5994663
3	0x40bf9e22	5.9880533
4	0x40b3bd0c	5.616827
5	0x40e2d7c6	7.0888395
6	0x3e01fd79	0.12694348
7	0x3ef7e97b	0.4842032
8	0x3ebf9588	0.3741877
9	0x3ece989c	0.40350807
10	0xbe56d289	-0.2097875
11	0xbe9e90ec	-0.30969942
12	0xc08df164	-4.4357166
13	0xc0974c4e	-4.7280645
14	0xbeb176ed	-0.34661046
15	0x3f5d9080	0.86548615
16	0x3faa6816	1.3313015
17	0xbfa5fcc6	-1.2967765

fc3.bias f4 [3]
0	0x40353244	2.831193
1	0x3f8941c0	1.072319
2	0x4097aefe	4.7401114
