results/march.pt (torch, 3351 bytes, 6 tensors)

fc1.weight f4 [12, 18]
00000000: 8e3b 1540 e17c 36bf 5f46 61bf 060d 5fbf
00000010: 0ee5 88bf eb8c 38bf b3f4 87bd 84c2 bd3e
00000020: 62ef 62bf 3537 f4bf 3260 8dbf 4288 5bbf
00000030: f520 d53f e97e 05bf ac6e 34be 52e8 75bd
00000040: b14d 07bd d80f e03e ae58 a740 032c 53bf
00000050: ea3b a7c0 1cf8 4fbf ca41 a7c0 373d 1cbf
00000060: b23a a9bc 4c02 d03e bd39 60bf 7625 b6bf
00000070: ccbd 85c0 e5fc 2abf ae03 d93f a06d 43bf
00000080: 9f58 31be c6bf b7bc 3a15 c4bc 9aa2 ed3e
00000090: e0e5 1940 e9a4 41bf dce6 5bbf b3d3 55bf
000000a0: fbd3 83bf 6ec1 23bf ad95 8bbd d293 d23e
000000b0: 2c3c 7ebf e492 70bf 4e65 85bf 1bef d9bf
000000c0: 7d0a ce3f 6464 23bf 1cad 55be b960 53bd
000000d0: 12d2 3ebd 63cf 093f 3bbf 1d40 dee0 4cbf
000000e0: 658b 5cbf 2a5e e4bf 51b4 87bf a411 1bbf
000000f0: 931f 8dbd 19a2 a73e 0439 65bf b1d9 88bf
00000100: 4b4b 92bf a687 56bf 5564 d83f cd8e 3fbf
00000110: 0fdd 5bbe c19f 1dbe 4b2a 743d 8a2e d03e
00000120: e595 9e40 3070 5bbf 10d6 9fc0 4347 e5bf
00000130: 3ef5 9fc0 ac99 17bf 75a7 02be ea84 df3e
00000140: 7c07 91bf 0932 01c0 ddfc 7fc0 4ac2 00c0
00000150: 21af d93f 6edd 00c0 cf87 31be 1cb3 14be
00000160: 0fec 5f3d 4820 f73e 0a5e 05c1 dd6b b53f
00000170: a7dd c4bf 321f c83f 09fa d6bf 4cdc edbe
00000180: b296 f7bb 15f8 483b d245 9b3f 4677 b93f
00000190: 2f67 d7bf b4e9 0940 7f98 1f40 4ad1 e13f
000001a0: cd79 e1be 6b2e 223e bbae 1a3e f6f9 ab3f
000001b0: 6d36 1840 6c3e 37bf c32d 53bf 16b2 5ebf
000001c0: 8d77 83bf 521c 17bf d5f9 3abd d276 b23e
000001d0: bc1b 5fbf e5a4 8abf c475 90bf 18b5 50bf
000001e0: 4599 d43f 7b83 1ebf a4dd 13be 33db 4bbd
000001f0: 2e0b 6ebd 4a24 033f cb83 1f40 c426 44bf
00000200: 4113 61bf c649 53bf 2d42 78bf 01cb 2cbf
00000210: 846d 72bd bd21 dc3e 08ef 62bf 4f74 88bf
00000220: 943a 84bf a961 26bf 07b9 d73f 6179 18bf
00000230: 302f 22be afbc b5bd 63bc 8a3b 34f4 f93e
00000240: ed5e 1c40 ae81 3fbf 503b 6fbf 4bd8 dabf
00000250: 9dd4 82bf bd3a 2bbf 0dea f2bd fe8c db3e
00000260: 6367 7bbf 35a9 53bf 93ee 8bbf 55e8 27bf
00000270: 66a8 d33f 95b1 31bf 0fbf 7bbe e180 f4bd
00000280: d050 ffb9 92c9 e03e 34e5 a240 858d 45bf
00000290: 69f1 a3c0 1b12 40bf 2d08 a4c0 33f4 32bf
000002a0: 80b6 98bd d370 e83e 54f5 6abf 917d 8dbf
000002b0: b038 83c0 deae 3bbf c033 d13f b63e 1bbf
000002c0: 8445 1ebe 5612 f1bd ca75 ae3c 8c58 ee3e
000002d0: 1e29 1640 0c05 48bf 550e 5dbf 74c5 6dbf
000002e0: 4bdc 7ebf b121 1cbf 8f42 a2bc 7aef d83e
000002f0: 489b 4fbf c558 8ebf 1720 90bf 7e50 55bf
00000300: cade d43f 334e 20bf ea33 31be c294 acbd
00000310: f644 c5bb 0235 dd3e 9760 ac40 2b71 50bf
00000320: d65b acc0 7755 67bf 6934 acc0 fbfe 2abf
00000330: 80e4 11be 4a2e cb3e bb82 56bf 46ca 9fbf
00000340: e2ad 89c0 6635 4bbf aefe cd3f eb79 23bf
00000350: 6eb3 4abe 1bb2 19bd a06b dfbc 411d fe3e
2.33176 -0.712843 -0.87998 -0.8712925 -1.0694902 -0.72090024 -0.066384695 0.37062466
-0.8864652 -1.9079348 -1.1044981 -0.8575479 1.6650683 -0.52146775 -0.17620343 -0.06003601
-0.033033077 0.43762088 5.229575 -0.8248903 -5.2260637 -0.8123796 -5.226781 -0.61030906
-0.02065787 0.40626752 -0.875881 -1.4230182 -4.1794186 -0.66792136 1.6954248 -0.7633915
-0.17318963 -0.022430312 -0.023935903 0.46413118 2.4046555 -0.7564226 -0.8589914 -0.8352615
-1.0299066 -0.63967025 -0.06815658 0.41128403 -0.99310565 -0.9397414 -1.0421541 -1.7026094
1.6096951 -0.6382506 -0.20866817 -0.051605914 -0.046587057 0.5383207 2.4647968 -0.8003062
-0.861502 -1.7841237 -1.0601903 -0.6057379 -0.06890788 0.32740858 -0.89540124 -1.0691434
-1.1429228 -0.83800733 1.6905619 -0.7482727 -0.21471046 -0.15392973 0.059610646 0.40660506
4.9557977 -0.8571806 -4.9948807 -1.7912372 -4.998687 -0.5921886 -0.12759192 0.43656093
-1.1330409 -2.018679 -3.9998085 -2.0118585 1.700657 -2.013515 -0.17336963 -0.1452145
0.054668482 0.48266816 -8.335459 1.4173542 -1.5380143 1.563452 -1.6795055 -0.46457136
-0.007555806 0.0030665447 1.2130682 1.4489524 -1.6828364 2.154889 2.4936826 1.7641995
-0.4403824 0.1583802 0.15105717 1.3435657 2.378322 -0.71579623 -0.824917 -0.8699049
-1.0270859 -0.5902759 -0.045648415 0.34856278 -0.87151694 -1.0831572 -1.1285939 -0.8152633
1.6609274 -0.61919373 -0.14440018 -0.04976959 -0.05811613 0.5122725 2.492419 -0.7662165
-0.87920004 -0.82534444 -0.96975976 -0.6749726 -0.059186473 0.4299449 -0.8864598 -1.0660495
-1.0330377 -0.6499277 1.6853341 -0.5956021 -0.15838313 -0.08873879 0.004233883 0.48819125
2.4432938 -0.7480725 -0.9344988 -1.7097257 -1.0221134 -0.668865 -0.11861048 0.42881006
-0.9820463 -0.82680064 -1.0932182 -0.65588886 1.6535766 -0.69411594 -0.24584602 -0.11938644
-0.000486976 0.43903786 5.090479 -0.77169067 -5.123219 -0.75027627 -5.125998 -0.6990387
-0.07456684 0.45398578 -0.9178059 -1.1053945 -4.10067 -0.733137 1.6343918 -0.60642564
-0.15456206 -0.117710754 0.0212964 0.4655193 2.3462596 -0.781327 -0.86349994 -0.92879415
-0.9955489 -0.6098891 -0.019807128 0.42370206 -0.81096315 -1.112084 -1.1259793 -0.83325946
1.663049 -0.6261932 -0.1730496 -0.08426811 -0.0060201837 0.43204504 5.3867908 -0.8142268
-5.3862104 -0.90364784 -5.3813977 -0.6679532 -0.14247322 0.39683753 -0.8379323 -1.2483604
-4.302476 -0.79378355 1.6093347 -0.6385791 -0.1979501 -0.03752337 -0.027273 0.49631694

fc1.bias f4 [12]
00000000: 5b25 a43f 9fff 843f 4f7e 9b3f f5ea a43f
00000010: 67f3 823f fbfe d53f 6ba7 a13f 8cb7 9a3f
00000020: 1b11 9c3f 46a1 853f 4106 a93f 5abc 883f
1.28239 1.0390509 1.2147921 1.2884203 1.023053 1.6718439 1.2629217 1.2087264
1.219272 1.0439842 1.3205034 1.068248

fc2.weight f4 [6, 12]
00000000: a48e 37c0 a5b7 7dc0 3d23 3cc0 25f3 2dc0
00000010: 2ff4 6ac0 0495 2f40 db33 34c0 55a2 39c0
00000020: f3ed 38c0 526e 81c0 655c 3ec0 8501 88c0
00000030: cdee 0c40 daed 5f40 253a 0440 e366 ff3f
00000040: 62f7 4c40 d763 42c1 1cad 0540 ddd9 0540
00000050: b37e 0140 f464 5e40 d52a 0640 af3e 7040
00000060: d35c 34c0 90fb 7dc0 3833 2dc0 5150 17c0
00000070: c552 59c0 b4ca 3e40 72d9 27c0 259f 32c0
00000080: 7ff7 21c0 db44 80c0 128b 23c0 a383 81c0
00000090: 2819 3cc0 18f1 78c0 8799 3bc0 aeca 2fc0
000000a0: c866 6fc0 4c1f 2d40 4b39 3bc0 a613 32c0
000000b0: 58ab 35c0 f40c 7ec0 7dad 3ac0 aab3 86c0
000000c0: 00cf fc3f c7db 5e40 5776 0640 f0db fd3f
000000d0: f38a 5040 87a1 62c1 c31e 0040 8bf9 0440
000000e0: 459d 0040 af08 5240 abbe f73f d9a3 6640
000000f0: ed25 30c0 6815 75c0 ab9f 2ac0 fc60 18c0
00000100: 1e4e 5bc0 387b 1f40 813c 2ac0 3695 37c0
00000110: 730b 29c0 1b66 7ec0 8842 29c0 1c8a 80c0
-2.868081 -3.9643338 -2.9396508 -2.7179654 -3.6711538 2.7434702 -2.815665 -2.900533
-2.8895233 -4.044717 -2.9743893 -4.2501855 2.2020752 3.4988923 2.0660489 1.9953274
3.202599 -12.149375 2.0886908 2.0914223 2.023358 3.4749117 2.0963643 3.753826
-2.8181655 -3.9684792 -2.7062511 -2.3642771 -3.3956769 2.981122 -2.6226468 -2.7909634
-2.530731 -4.008405 -2.5553632 -4.047319 -2.9390354 -3.8897152 -2.9312456 -2.7467456
-3.7406483 2.7050352 -2.925372 -2.7824492 -2.838583 -3.9695406 -2.916839 -4.2094316
1.9750671 3.4821641 2.100973 1.9832745 3.2584808 -14.164435 2.0018775 2.077731
2.009599 3.28178 1.9355062 3.6037505 -2.7523148 -3.8294315 -2.6659954 -2.3809195
-3.426643 2.4918957 -2.6599429 -2.868482 -2.6413238 -3.974982 -2.6446857 -4.016859

fc2.bias f4 [6]
00000000: 5235 9ec0 139f bc3f 3433 86c0 82e7 9ac0
00000010: 6e64 383f 5cd3 8fc0
-4.944009 1.4736046 -4.1937504 -4.84076 0.72028244 -4.4945507

fc3.weight f4 [3, 6]
00000000: fe00 4bc0 bc0b 8a40 8691 36c0 64bd 4fc0
00000010: 50ea 8f40 08de 45c0 7a96 a73f b713 9ebc
00000020: 4a40 52bf 079d 9f3f edc2 c73d d300 a03f
00000030: 7d89 55c0 275e 113e 3f79 69c0 8ebb 54c0
00000040: cc13 78bf c4eb 4dc0
-3.1719356 4.3139324 -2.852632 -3.2459345 4.4973526 -3.0916767 1.3092797 -0.01929651
-0.8212935 1.2469796 0.09753976 1.2500252 -3.3365166 0.14196073 -3.6480253 -3.3239474
-0.9690521 -3.217515

fc3.bias f4 [3]
00000000: 133d 3240 2418 d43f f514 3241
2.7849777 1.6569867 11.130116
