results/may.pt (torch, 3351 bytes, 6 tensors)

fc1.weight f4 [12, 18]
-0.44892213 -0.4030939 -0.45521724 -0.66936153 -0.44511306 -0.41574374 -0.13876623 1.8689739
-0.7254878 -0.8988141 -0.5495648 -0.7382211 0.6555831 -0.34198883 -0.15313557 -0.41194618
-0.38758466 -0.34733582 -8.89717 -0.60427654 -0.6331895 1.050679 -0.7790959 -0.43869898
-0.3747766 2.7835228 1.0478197 1.160302 -0.77043325 1.0349452 0.99742544 1.1473343
-0.3815912 -0.683861 1.3054012 -0.4756412 -0.42055354 -0.44490334 -0.4770479 -0.73912877
-0.45890757 -0.37932432 -0.16241136 1.7787445 -0.6891455 -0.666235 -0.56477845 -0.6695107
0.60492605 -0.3694195 -0.22120388 -0.36360157 -0.4081634 -0.41766706 4.3443575 -1.1419879
-3.9933863 -1.2920316 -3.9898195 -0.3259247 -0.09545407 1.9104398 -1.185269 -1.3815793
-3.1368017 -1.3797415 0.64646345 -1.399802 -0.18301632 -0.36031902 -1.3967944 -0.41321176
2.4338665 -0.39643118 -0.4903619 -1.167156 -2.6119857 -0.33979023 -0.10112716 1.870142
-1.1374903 -0.63305265 -1.1055635 -1.129194 0.5849205 -1.1452267 -0.21952431 -0.37844762
-1.1399162 -0.36452588 3.0338275 -0.37213838 -0.48549983 -0.91391957 -3.1314402 -0.36668143
-0.082253486 1.883665 -1.1876308 -1.31965 -2.5251286 -1.087946 0.64210004 -1.3018725
-0.12996851 -0.4036843 -0.61747044 -0.3121775 4.8910193 -1.1664956 -4.246803 -1.3174713
-4.2360477 -3.7291043 -0.18847136 1.9199351 -1.053493 -1.3113359 -3.2545419 -1.2918242
0.63425636 -1.2938255 -0.15971978 -1.0147645 -1.2976094 -1.040414 -0.39484176 -0.45904204
-0.47143185 -0.7086622 -0.42518464 -0.3239884 -0.17107916 1.7939788 -0.6894344 -0.9816013
-0.57342935 -0.71996695 0.54170233 -0.3641335 -0.1834371 -0.4552749 -0.44055006 -0.36016518
4.8456745 -1.3280973 -4.235403 -1.2745687 -4.2380733 -3.744669 -0.1381782 1.8698018
-1.1923839 -1.3476863 -3.2701 -1.2658439 0.5890718 -1.3372475 -0.15169112 -0.55606914
-1.3299243 -0.6500125 -0.40562457 -0.3656612 -0.4592026 -0.6493564 -0.4288761 -0.32518783
-0.126886 1.7613028 -0.7327832 -0.62817377 -0.5968334 -0.73274016 0.6238304 -0.25568327
-0.23166166 -0.43238315 -0.32950804 -0.3948656 -0.45175412 -0.41625243 -0.47893688 -0.6337005
-0.38132 -0.3320068 -0.08531409 1.9039124 -0.61351955 -0.6907975 -0.57290757 -0.6344477
0.5780267 -0.22099715 -0.19729441 -0.39098635 -0.18713832 -0.4145423 -0.4437641 -0.3361153
-0.46764454 -0.6723936 -0.3856022 -0.3941763 -0.10511111 1.8752929 -0.64385414 -0.6251727
-0.5592522 -0.63517976 0.56668264 -0.31065807 -0.22642477 -0.4157907 -0.35995927 -0.34853914
00000000: 1fd9 e5be 5362 cebe 3c12 e9be 475b 2bbf
00000010: dce5 e3be 5ddc d4be bc18 0ebe 893a ef3f
00000020: 92b9 39bf ae18 66bf 47b0 0cbf 0ffc 3cbf
00000030: 4bd4 273f 2919 afbe 92cf 1cbe 9cea d2be
00000040: 7f71 c6be 00d6 b1be cf5a 0ec1 deb1 1abf
00000050: b518 22bf a67c 863f d472 47bf 279d e0be
00000060: b8e2 bfbe 3d25 3240 f51e 863f c784 943f
00000070: 1d3b 45bf 1679 843f 4657 7f3f dadb 923f
00000080: ec5f c3be 8411 2fbf 6317 a73f 3e87 f3be
00000090: cb52 d7be 5fca e3be 9f3f f4be 8b37 3dbf
000000a0: eff5 eabe cc36 c2be 2a4f 26be e6ad e33f
000000b0: d76b 30bf 618e 2abf 5295 10bf 0e65 2bbf
000000c0: 6fdc 1a3f 8d24 bdbe 4583 62be fc29 babe
000000d0: cbfa d0be 75d8 d5be fa04 8b40 a92c 92bf
000000e0: a493 7fc0 4b61 a5bf 3459 7fc0 9adf a6be
000000f0: 6c7d c3bd 4b89 f43f e5b6 97bf 97d7 b0bf
00000100: 5cc1 48c0 5f9b b0bf a17e 253f b62c b3bf
00000110: a168 3bbe bc7b b8be 29ca b2bf 7e90 d3be
00000120: 78c4 1b40 07f9 cabe b710 fbbe 5e65 95bf
00000130: c62a 27c0 fcf8 adbe c21b cfbd d060 ef3f
00000140: 4899 91bf bd0f 22bf 1b83 8dbf 6e89 90bf
00000150: 5abd 153f ca96 92bf fbca 60be e3c3 c1be
00000160: c6e8 91bf 23a3 babe 3b2a 4240 ec88 bebe
00000170: 6f93 f8be a2f6 69bf 8469 48c0 abbd bbbe
00000180: 8474 a8bd ef1b f13f 4904 98bf 4bea a8bf
00000190: b59b 21c0 d141 8bbf ab60 243f c2a3 a6bf
000001a0: 7716 05be b5af cebe 8b12 1ebf bbd5 9fbe
000001b0: 3b83 9c40 ba4f 95bf cfe5 87c0 e6a2 a8bf
000001c0: b48d 87c0 a5a9 6ec0 a3fe 40be 6fc0 f53f
000001d0: dcd8 86bf dbd9 a7bf 6a4a 50c0 7f5a a5bf
000001e0: a05e 223f 139c a5bf 958d 23be cee3 81bf
000001f0: 1118 a6bf 492c 85bf b328 cabe 8f07 ebbe
00000200: 845f f1be e36a 35bf cdb1 d9be cfe1 a5be
00000210: 602f 2fbe 19a1 e53f c67e 30bf 394a 7bbf
00000220: 44cc 12bf c14f 38bf 01ad 0a3f b56f babe
00000230: efd6 3bbe cb19 e9be c78f e1be 9267 b8be
00000240: c40f 9b40 18ff a9bf 6c88 87c0 1125 a3bf
00000250: 4c9e 87c0 a8a8 6fc0 967e 0dbe aa55 ef3f
00000260: 09a0 98bf fc80 acbf 5249 51c0 2c07 a2bf
00000270: 69cd 163f ed2a abbf eb54 1bbe 8c5a 0ebf
00000280: f63a aabf 3867 26bf 06ae cfbe f237 bbbe
00000290: 9a1c ebbe 393c 26bf a695 dbbe 057f a6be
000002a0: 67ee 01be 5f72 e13f ae97 3bbf ffcf 20bf
000002b0: 13ca 18bf dc94 3bbf 59b3 1f3f ebe8 82be
000002c0: b738 6dbe 5361 ddbe 47b5 a8be d32b cabe
000002d0: 514c e7be 0a1f d5be 3737 f5be 323a 22bf
000002e0: 603c c3be ccfc a9be 27b9 aebd 67b3 f33f
000002f0: 9e0f 1dbf 1bd8 30bf 12aa 12bf 2a6b 22bf
00000300: 8ff9 133f 144d 62be 8c07 4abe 5d2f c8be
00000310: 30a1 3fbe e33e d4be 0c35 e3be 4e17 acbe
00000320: 1b6f efbe fd21 2cbf a76d c5be 7ad1 c9be
00000330: 7e44 d7bd 9909 f03f a0d3 24bf 510b 20bf
00000340: 272b 0fbf 249b 22bf 1d12 113f 930e 9fbe
00000350: e5db 67be 85e2 d4be 954c b8be b973 b2be

fc1.bias f4 [12]
0.8253317 0.76848906 0.8228293 0.5031493 0.6412116 0.68222785 0.30685857 0.8168209
0.34724268 0.84665406 0.85020226 0.83193374
00000000: f048 533f b3bb 443f f1a4 523f 64ce 003f
00000010: 7226 243f 7ca6 2e3f 911c 9d3e 2d1b 513f
00000020: cbc9 b13e 52be 583f dba6 593f 9cf9 543f

fc2.weight f4 [6, 12]
1.6947421 -15.674548 1.5998852 3.154726 2.0766528 2.1943824 3.6436245 1.6186903
3.7119136 1.5176123 1.6096356 1.6116195 -2.7100534 3.33019 -2.5033383 -2.4278717
-1.4001583 -1.5898823 -3.161868 -2.4447496 -3.0632074 -2.5078795 -2.7982576 -2.6493485
-2.551063 3.43431 -2.5365565 -2.685428 -1.7619132 -1.9296818 -3.4139924 -2.523846
-3.3284652 -2.7343647 -2.8442566 -2.8156576 1.6169782 -16.539953 1.5942209 3.1116264
2.142667 2.2630272 3.601551 1.6571155 3.7692678 1.5611874 1.4983875 1.6418347
1.6648097 -16.030872 1.6515939 3.1314943 2.132997 2.1888402 3.6398666 1.5101247
3.612262 1.5196401 1.5520712 1.645175 -2.784799 3.6042008 -2.84842 -2.737298
-1.658858 -1.9226776 -3.4210706 -2.731359 -3.326327 -2.867439 -3.0480127 -2.8949103
00000000: 4fed d83f f3ca 7ac1 0ac9 cc3f 08e7 4940
00000010: e1e7 0440 c370 0c40 2531 6940 3e31 cf3f
00000020: fe8f 6d40 1f41 c23f 8a08 ce3f 8c49 ce3f
00000030: 8471 2dc0 d521 5540 b236 20c0 4062 1bc0
00000040: 6338 b3bf 4381 cbbf 0c5c 4ac0 c776 1cc0
00000050: 970b 44c0 1981 20c0 a716 33c0 ed8e 29c0
00000060: 9e44 23c0 bccb 5b40 f156 22c0 0dde 2bc0
00000070: 5f86 e1bf d0ff f6bf da7e 5ac0 b186 21c0
00000080: 9305 55c0 d5ff 2ec0 4d08 36c0 bc33 34c0
00000090: 24f9 ce3f d351 84c1 6e0f cc3f e324 4740
000000a0: 7521 0940 70d5 1040 d07f 6640 5c1c d43f
000000b0: af3b 7140 fdd4 c73f 29cb bf3f a427 d23f
000000c0: 7c18 d53f 3a3f 80c1 6e67 d33f 676a 4840
000000d0: 0683 0840 f515 0c40 93f3 6840 c44b c13f
000000e0: 4d2f 6740 9183 c23f 45aa c63f 1895 d23f
000000f0: 263a 32c0 3aab 6640 834c 36c0 e42f 2fc0
00000100: 7555 d4bf 4d1a f6bf d2f2 5ac0 96ce 2ec0
00000110: 8be2 54c0 1f84 37c0 a412 43c0 3646 39c0

fc2.bias f4 [6]
0.76097196 -4.067204 -4.7418876 0.6980245 0.66525626 -4.93892
00000000: 0fcf 423f 8926 82c0 8bbd 97c0 bcb1 323f
00000010: 3c4e 2a3f a20b 9ec0

fc3.weight f4 [3, 6]
6.135266 -2.9742274 -3.2314277 6.323495 6.2360935 -3.35052 -0.31907007 -1.8625948
3.5383096 0.45462558 -0.01514431 -0.26146606 0.6312545 -2.7221637 -1.9965019 0.34573284
0.4999327 -2.6181145
00000000: 1954 c440 be59 3ec0 b6cf 4ec0 125a ca40
00000010: 148e c740 eb6e 56c0 275d a3be 8269 eebf
00000020: aa73 6240 afc4 e83e d71f 78bc e1de 85be
00000030: e599 213f ee37 2ec0 608d ffbf e503 b13e
00000040: 2ef7 ff3e 308f 27c0

fc3.bias f4 [3]
4.0474935 1.4081242 4.80435
00000000: 1185 8140 6a3d b43f 3cbd 9940
