results/november.pt (torch, 3351 bytes, 6 tensors)

fc1.weight f4 [12, 18]
00000000: ffa8 f53f 0b1e 743e f6a5 ddbe f2d4 adbf
00000010: 3cd3 acbf c5c1 503d 2a76 aa3f e091 bc3c
00000020: 46ba b6bf 5663 cdbf 245a 7bbf a571 bbbf
00000030: f65a a93f 461c 21bf 9e5c e93f 5c4b 5e3f
00000040: adc4 cabf 8db1 3d3f 354b e53f a53e 9e3e
00000050: 6d79 c3be c273 0cc0 4db2 b2bf c47a a3bc
00000060: 257e c53f 1291 263d 5863 e7bf 0002 bec0
00000070: 489c 70bf 9f6d e7bf 5e24 a53f cd0f 3fbf
00000080: a6b5 0540 7c3f 803f 80c8 e5bf 62e3 3a3f
00000090: 39cc de3f d186 893e d510 c5be 7e1e c9bf
000000a0: 46b3 afbf 3b1a 40bc 77ab b63f 1513 5c3d
000000b0: d862 c1bf cbf5 b1c0 99bc 74bf 68f1 f7bf
000000c0: 9c7c a63f e74b 45bf 1142 0240 3d33 7b3f
000000d0: 029b dcbf dc47 343f ce7d d93f c565 a33e
000000e0: 92c4 cdbe e9e8 c4bf 656d afbf 7444 eabc
000000f0: 688d b93f d79d 153c b637 c8bf efcf bbc0
00000100: a6c2 7dbf 44a1 06c0 bb60 a63f 32af 30bf
00000110: 7acc 0840 06b4 873f 9728 dcbf d70c 313f
00000120: 66d6 d73f e378 953e 755a b8be 4b19 cabf
00000130: 1d83 bbbf 67a5 663b 4e29 ca3f 9766 03bc
00000140: a862 cebf 3048 c3c0 9ecb 7abf 44fa e0bf
00000150: ebf1 9f3f f549 2cbf 7f2d 0940 6e86 8b3f
00000160: e4ac e0bf 807c 303f 1f24 e73f 8173 963e
00000170: 083f cbbe 2f5e b9bf 3b33 adbf 74c5 993d
00000180: 48d4 a93f 1a10 d5bc 2878 b8bf eab5 b8c0
00000190: c780 80bf 371b 01c0 1063 ab3f 807a 36bf
000001a0: ce70 ed3f 4f62 793f 0997 d0bf cd70 323f
000001b0: 600b f03f 5010 853e 6242 00bf 5232 b5bf
000001c0: abc0 a8bf 9882 4ebd a90e a73f 54d5 193d
000001d0: 8636 babf 58b1 e0bf f1a3 74bf 8d79 b9bf
000001e0: fcdd b23f ea64 2ebf b9ca dc3f d373 5b3f
000001f0: c9a1 cabf cb0f 403f 425b f43f f081 af3e
00000200: c199 b7be 8304 09c0 6198 b2bf b0af b83c
00000210: 92ee c33f 4a79 563d 960a e0bf fef6 bcc0
00000220: e2c5 70bf 6e9b e3bf 0c06 9d3f 29f3 2ebf
00000230: ab88 0840 6f29 873f fde1 dbbf 000d 383f
00000240: ff29 fa3f 2793 6e3e 0b24 09bf e801 afbf
00000250: e43e a4bf fe69 e83c f760 9b3f bd1c d13c
00000260: 47c8 b4bf e95e e5bf d5f6 87bf f2f9 babf
00000270: 2951 af3f 2ea2 1ebf 6728 e13f 1d31 6b3f
00000280: 4255 cfbf dcfe 413f 0b4c a4c0 5752 9a3e
00000290: 3f1b 99bf d4e2 c3bf 6212 c4bf 347b 8cbe
000002a0: 62ba 393f 9a1d ee3e c8ae c4bf ec54 c3bf
000002b0: f243 c4bf ebae c2bf 1cc8 aa3f 5252 23be
000002c0: dde1 863f 4d20 cf3e b471 babf 4ce5 0b3f
000002d0: 3a2b dc3f 2361 9c3e 2029 d6be 223b c9bf
000002e0: 6f04 afbf b08e 18bd 94bd c13f d7c6 2d3c
000002f0: 2e06 c6bf c7cb bdc0 b4a6 6cbf fe55 c9bf
00000300: 5632 a23f 3481 40bf 7e54 0140 4aeb 753f
00000310: 3ff2 e0bf 23b2 303f 921a 6e3f 09a9 0d3f
00000320: 2de2 1040 7e37 64be 2a52 313f 6125 e33d
00000330: 1c2c c83f 89f4 2ec0 1200 55be 25c5 70bf
00000340: 38ad bb3f 80c0 04bf b3bc cbbf ea6b c2be
00000350: 7719 3340 57e0 833f ef50 94bf dfeb 42bf
1.9192199 0.23839585 -0.4329068 -1.3580611 -1.3501964 0.050966043 1.3317311 0.023018777
-1.4275596 -1.604594 -0.9818442 -1.4644057 1.3230884 -0.62933767 1.823139 0.8683374
-1.5841271 0.74099046 1.7913576 0.3090717 -0.38178578 -2.1945653 -1.3960663 -0.019956
1.5429121 0.040665694 -1.8077192 -5.937744 -0.93988466 -1.8080329 1.2901723 -0.74633485
2.089212 1.0019374 -1.7951813 0.7300321 1.7406074 0.2686067 -0.38489404 -1.571243
-1.3726585 -0.011725004 1.4271077 0.053729136 -1.510829 -5.561254 -0.9560028 -1.9370546
1.3006778 -0.7706894 2.0352824 0.9812506 -1.7234805 0.7042215 1.6991518 0.31913581
-0.40189034 -1.5383579 -1.370526 -0.028597094 1.4496279 0.00913187 -1.5642002 -5.8691325
-0.99125135 -2.1035929 1.299827 -0.69017327 2.1374803 1.0601814 -1.7199887 0.6916022
1.6862304 0.29193792 -0.36006513 -1.5788969 -1.4649388 0.0035193802 1.5793855 -0.008020065
-1.6123857 -6.102562 -0.97966945 -1.7576375 1.2495703 -0.6730035 2.1434019 1.09004
-1.7552762 0.6893997 1.8057898 0.29384997 -0.39696527 -1.4481868 -1.3531259 0.07508364
1.3267908 -0.026008654 -1.4411669 -5.7722063 -1.00393 -2.017286 1.3389606 -0.7128067
1.855005 0.9741563 -1.6296092 0.6970337 1.8753471 0.25989008 -0.5010129 -1.4155982
-1.3183798 -0.050417513 1.3051349 0.03755696 -1.4547889 -1.7554121 -0.95562655 -1.4490219
1.3973994 -0.6812273 1.7249366 0.8572361 -1.5830623 0.750241 1.909035 0.34278822
-0.35859492 -2.1409004 -1.3952752 0.022544712 1.5307181 0.052361764 -1.750323 -5.9051504
-0.94051945 -1.7781808 1.226747 -0.6833978 2.1333416 1.055952 -1.7178341 0.71894836
1.9544066 0.23298322 -0.5357062 -1.3672457 -1.2831693 0.028370854 1.2138966 0.025526399
-1.412362 -1.7919589 -1.0622202 -1.4607527 1.3696643 -0.61966217 1.7590455 0.91871816
-1.6197894 0.7577951 -5.1342826 0.30140945 -1.196144 -1.5303597 -1.531811 -0.27437747
0.7255002 0.4650696 -1.5365839 -1.5260291 -1.5333235 -1.5209631 1.3342319 -0.15949371
1.0537678 0.4045433 -1.456595 0.54646754 1.7200692 0.3054286 -0.4182825 -1.5721171
-1.3673228 -0.037245452 1.513598 0.010606489 -1.5470636 -5.931125 -0.9244187 -1.5729368
1.2671611 -0.7519715 2.020782 0.9606215 -1.7573928 0.69021815 0.93009293 0.5533605
2.2638047 -0.22286794 0.69266 0.11091114 1.5638461 -2.7336752 -0.20800808 -0.9405082
1.4662237 -0.5185623 -1.5916961 -0.37972957 2.7984293 1.0302838 -1.1587199 -0.7614116

fc1.bias f4 [12]
00000000: 6690 cb3f 2197 e63f ff66 dd3f 2dfc dc3f
00000010: 2d76 e13f 8c6e d13f 716f cb3f 1bbe dc3f
00000020: 1123 d03f 1dae c13f 5bbb e13f baf1 723f
1.5903442 1.8014871 1.7297057 1.7264458 1.7614189 1.6361861 1.5893384 1.7245516
1.6260701 1.513126 1.7635301 0.94900095

fc2.weight f4 [6, 12]
00000000: 1d6b 3ebe 523b dc3d a8c9 3f3d c7ac dc3d
00000010: 784c 4a3e 909e e8bd a229 87be 1cc4 bb3d
00000020: f528 85be 0979 6d41 5c89 c13d 8a1f cd40
00000030: 0771 22c0 2b97 21c0 09e2 24c0 3a5a 25c0
00000040: ab64 24c0 10cb 1ec0 a19e 23c0 d7a4 26c0
00000050: 809d 1dc0 840a bd40 d2aa 23c0 67ce d2be
00000060: e662 1f40 7b32 2340 f910 1d40 0d97 2240
00000070: e12d 2740 ab8a 1e40 1f1c 2240 1405 2640
00000080: 0752 1840 9262 b7c0 fd52 2140 6251 d53e
00000090: 153a 20c0 b7ed 0ec0 8319 13c0 9731 1bc0
000000a0: 0655 18c0 f2d1 1ac0 c4fc 0cc0 38f6 1dc0
000000b0: d162 10c0 39d8 ba40 0ad8 11c0 28f8 19bf
000000c0: c52a 2a40 3df1 2140 b261 2340 87ea 2440
000000d0: 8da7 2440 1b40 2840 6468 2040 472b 2740
000000e0: 6aa6 2340 af28 c5c0 a7a2 2240 411b 963d
000000f0: 885e 1dc0 cb87 0fc0 a481 12c0 2d9f 17c0
00000100: 17ed 18c0 bcc1 1bc0 7222 0dc0 53a7 19c0
00000110: 0c6d 07c0 b443 ae40 3933 0ac0 a9c5 4abf
-0.18595548 0.10753502 0.046823174 0.10775142 0.19755733 -0.113583684 -0.2639895 0.09168264
-0.2600781 14.84205 0.09450027 6.4101 -2.5381486 -2.5248516 -2.576296 -2.583632
-2.5686443 -2.481144 -2.556557 -2.603811 -2.462738 5.9075336 -2.557301 -0.41173097
2.4904113 2.549956 2.454161 2.5404694 2.6121752 2.4772136 2.5329664 2.59406
2.3800066 -5.7307825 2.5206902 0.41663653 -2.503545 -2.233259 -2.298432 -2.4249017
-2.3801894 -2.419064 -2.2029276 -2.468153 -2.2560313 5.8388944 -2.278811 -0.6014428
2.6588604 2.530349 2.5528378 2.5768144 2.5727265 2.6289127 2.5063715 2.6120164
2.557032 -6.1612163 2.5411775 0.07329417 -2.4588947 -2.2426631 -2.2891626 -2.3690903
-2.3894708 -2.4336996 -2.2052274 -2.4008377 -2.1160307 5.4457645 -2.1593764 -0.79207855

fc2.bias f4 [6]
00000000: 1112 553f b38f c8bf d401 cd3f f1db 9bbf
00000010: 62bf cd3f 24e3 9ebf
0.8323069 -1.5668854 1.6016183 -1.2176496 1.607403 -1.2413068

fc3.weight f4 [3, 6]
00000000: 3d63 3cc0 2173 46c0 aa1a 4240 37d9 3ac0
00000010: 1670 4440 7591 31c0 cf01 92bd 5814 9cbe
00000020: 9373 783d 64af 45bf fa55 90bc c702 32bf
00000030: f255 a140 0401 ac3f 996b 9dbf 4b61 b13f
00000040: bd8f b7bf c7f1 993f
-2.943557 -3.100777 3.0328774 -2.9195077 3.0693412 -2.774503 -0.07129251 -0.3048427
0.060657095 -0.7722075 -0.017619122 -0.6953549 5.0417414 1.343781 -1.2298461 1.3857816
-1.434074 1.202691

fc3.bias f4 [3]
00000000: c6d3 a93f 6bfd 1240 660c 163d
1.3267753 2.2967174 0.036632918
