results/october.pt (torch, 3351 bytes, 6 tensors)

fc1.weight f4 [12, 18]
000000 dc 4d 67 40 62 bb 82 be 2e 59 2b bf 8a 17 ae bf
       3.6141272 -0.25533587 -0.6693295 -1.3600934
000010 f3 e5 55 bf 5c db 42 bf e8 72 03 3f b3 ac f9 3f
       -0.83554 -0.76115966 0.5134721 1.9505829
000020 8a 65 0a c0 1f b9 07 c0 27 4b a0 bf d3 ac 09 c0
       -2.1624475 -2.120674 -1.2522935 -2.1511734
000030 f3 78 fb be b6 af 9b bf aa dc 42 3f 9a 05 5f 3d
       -0.49115714 -1.2162998 0.76117957 0.0544487
000040 18 d7 0d c0 ca d1 1c 3e 6d b3 69 40 c7 5e 9a be
       -2.2162533 0.15314403 3.6515763 -0.30150434
000050 a5 17 30 bf f5 34 ac bf 55 8d 45 bf 37 1c 4e bf
       -0.6878608 -1.3453661 -0.7716878 -0.805118
000060 d0 79 05 3f 4f f0 fa 3f d5 ef aa bf 57 a8 05 c0
       0.52138996 1.9604586 -1.3354441 -2.0883996
000070 16 bc 9e bf cb 41 0a c0 95 39 02 bf 98 93 93 bf
       -1.2401149 -2.1602657 -0.50869113 -1.1529417
000080 43 9e 5b 3f 61 72 0d bd 56 16 0e c0 77 4f 1d 3e
       0.85788363 -0.03453291 -2.2201133 0.15362345
000090 20 4d 68 40 27 04 82 be 3a 08 2f bf b1 5e b1 bf
       3.6297073 -0.25393793 -0.6837193 -1.3857023
0000a0 9f 2a 50 bf b2 80 48 bf 4f ea 0a 3f f9 c5 fa 3f
       -0.81315035 -0.78321373 0.54263777 1.9591666
0000b0 50 9a b5 bf 05 10 07 c0 b1 8e a0 bf f7 a0 ae bf
       -1.4187717 -2.1103528 -1.2543546 -1.3642873
0000c0 c9 05 e8 be 14 ba 99 bf 31 ce 5d 3f 8f 3d 32 bd
       -0.45316914 -1.2009912 0.8664275 -0.043515738
0000d0 d1 87 b7 bf 03 df a4 3d b6 55 6c 40 61 1a 9e be
       -1.4338323 0.080503486 3.6927314 -0.308795
0000e0 91 c4 35 bf 5d 80 ac bf a3 2f 4f bf 54 f9 4b bf
       -0.7100306 -1.3476673 -0.8093206 -0.7967732
0000f0 95 bf 20 3f 7f 33 fc 3f b8 b3 ad bf 38 d6 03 c0
       0.6279233 1.9703215 -1.3570471 -2.0599499
000100 98 52 a4 bf 72 38 b6 bf 8d a5 dc be e6 19 a3 bf
       -1.2837706 -1.4235976 -0.43095055 -1.2742279
000110 89 6c 50 3f 0c 73 09 3d 65 e4 b4 bf 30 71 b8 3d
       0.8141561 0.033556983 -1.41322 0.09005964
000120 a5 d0 6d 40 ee d0 b3 be a0 ed 1a bf 42 2e a8 bf
       3.7158597 -0.35120338 -0.60518837 -1.3139117
000130 30 0e 4c bf 57 e2 47 bf c3 b9 22 3f 39 18 fe 3f
       -0.7970915 -0.7807974 0.635647 1.9851142
000140 58 9b 02 c0 48 73 04 c0 2d 50 a1 bf fb be 06 c0
       -2.0407314 -2.0695362 -1.2602593 -2.1054065
000150 28 23 e9 be d2 93 a0 bf a9 cd 45 3f eb 59 9b 3d
       -0.45534635 -1.2545111 0.7726694 0.0758551
000160 49 72 0b c0 8d 4f 2b 3e df 42 9e 40 66 0b a8 be
       -2.1788504 0.16729565 4.945663 -0.32821196
000170 8d 8a 31 bf 58 05 18 c0 54 b1 65 bf 55 15 48 bf
       -0.69352037 -2.3753262 -0.89723706 -0.7815755
000180 3e a7 20 3f a9 fc 02 40 73 41 03 c0 e6 b6 01 c0
       0.6275519 2.0466712 -2.0508697 -2.0267882
000190 96 62 8b c0 d2 56 03 c0 61 cc 07 bf b3 8a 97 bf
       -4.3557844 -2.052174 -0.5304623 -1.1839203
0001a0 c4 77 51 3f 13 6a 8e 3d 21 d3 18 c0 e2 98 0e 3e
       0.8182337 0.06953826 -2.3878863 0.13925508
0001b0 3e 4b 68 40 8f 54 b7 be f8 6a 24 bf bb 21 b1 bf
       3.6295924 -0.358067 -0.6422572 -1.3838419
0001c0 82 3e 5c bf 29 ea 4c bf da 7f 07 3f 30 b8 f7 3f
       -0.8603288 -0.800448 0.5292946 1.9353085
0001d0 b5 3a b2 bf b8 54 09 c0 3a e2 9c bf 23 35 ae bf
       -1.3924166 -2.1457958 -1.2256539 -1.3609966
0001e0 69 e2 06 bf 93 48 a0 bf d4 53 45 3f 63 1a a6 3d
       -0.52689224 -1.2522148 0.77081037 0.081105016
0001f0 26 0d 12 c0 fa fa b3 3d 19 bd 70 40 24 53 bb be
       -2.2820525 0.08788104 3.7615416 -0.3658687
000200 63 01 33 bf fb 2e 0e c0 38 1a 6a bf aa ee 4e bf
       -0.6992399 -2.2216175 -0.91446257 -0.8083292
000210 bf 4b 13 3f 11 b7 02 40 89 21 08 c0 bf d0 03 c0
       0.57537454 2.0424235 -2.1270468 -2.0596159
000220 9f 5f 9f bf bf eb 07 c0 73 a3 05 bf 2d 17 a4 bf
       -1.2451056 -2.1237638 -0.5220253 -1.2819573
000230 8f 81 5d 3f ff 62 ab 3c e5 e4 0e c0 e2 4f f7 3d
       0.86525816 0.020921228 -2.2327206 0.12075783
000240 68 02 74 40 44 d5 bd be 4c 85 1f bf 12 ac 11 c0
       3.8126469 -0.3707677 -0.6231277 -2.2761273
000250 4d a9 51 bf 3a b8 45 bf 85 9f 13 3f a4 87 00 40
       -0.8189896 -0.7723423 0.5766528 2.0082788
000260 64 f7 0b c0 cd 8c 07 c0 13 b8 9d bf 69 3b b5 bf
       -2.1869745 -2.1179688 -1.23218 -1.4158756
000270 4d b8 fd be 02 84 a4 bf 9b 06 5d 3f 87 5e a8 3c
       -0.49554673 -1.2852786 0.86338204 0.020552887
000280 e1 53 b3 bf 19 b9 4b 3e 0a 11 6c 40 98 a3 89 be
       -1.4009973 0.19894828 3.68854 -0.26882625
000290 98 60 17 bf 0f 18 b1 bf c1 01 66 bf 60 44 4e bf
       -0.59131765 -1.3835467 -0.89846426 -0.8057308
0002a0 6e 1f 1d 3f 6e d7 02 40 43 03 ad bf c7 4f 05 c0
       0.6137608 2.0443988 -1.351662 -2.0829942
0002b0 9c 25 9a bf 30 ba aa bf 0a 4c ff be 56 18 9d bf
       -1.2042727 -1.333807 -0.498627 -1.2273052
0002c0 7f 11 58 3f 1f dd 1a 3c cc 87 b4 bf 25 9f 37 3e
       0.84401697 0.009452133 -1.4103942 0.17931803
0002d0 2a 99 6e 40 3c c0 96 be e3 9f 29 bf a0 86 0d c0
       3.7280984 -0.29443538 -0.6625959 -2.2113419
0002e0 f1 95 68 bf 41 18 3c bf 7b 18 08 3f b5 68 fa 3f
       -0.9085379 -0.7347451 0.53162354 1.9563204
0002f0 f4 3a 08 c0 b2 c5 03 c0 37 f5 9b bf 47 2e 08 c0
       -2.1285982 -2.0589414 -1.2184209 -2.1278245
000300 f6 c5 01 bf 54 c6 9e bf 54 d3 57 3f 7d 0e a4 3c
       -0.5069269 -1.2404275 0.84306836 0.02002644
000310 d9 0c 0e c0 7c 82 be 3d 09 86 74 40 af 7a c0 be
       -2.2195342 0.09302232 3.8206809 -0.375936
000320 86 b2 2e bf ba 69 10 c0 54 6b 5b bf f8 0e 46 bf
       -0.68241155 -2.256453 -0.85710645 -0.7736659
000330 2e 80 12 3f 91 c5 02 40 0e f0 ad bf 1b b7 04 c0
       0.57226837 2.0433085 -1.3588884 -2.0736759
000340 05 02 a7 bf e0 fa af bf 67 e4 e9 be e9 f9 9e bf
       -1.3047491 -1.3748436 -0.4568207 -1.2420017
000350 db ff 5b 3f 31 ea 95 bc 62 86 0f c0 39 bd b1 3d
       0.8593728 -0.018300148 -2.242577 0.086786695

fc1.bias f4 [12]
000000 f6 a5 bd 3f b6 87 bd 3f 3a da bf 3f 02 a5 bf 3f
       1.4816272 1.4807041 1.4988472 1.4972231
000010 f5 5b b6 3f 50 24 b0 3f 8b 1e c4 3f 0f 52 ba 3f
       1.4246813 1.3761082 1.5321821 1.4556292
000020 d7 39 c1 3f 28 fc bc 3f 79 00 bb 3f 51 f7 bb 3f
       1.5095776 1.4764452 1.4609519 1.468485

fc2.weight f4 [6, 12]
000000 b7 86 10 c0 b4 9a 15 c0 ef 3c 0f c0 92 eb 13 c0
       -2.2582223 -2.3375673 -2.238094 -2.311253
000010 38 ed 23 c0 2c ae 2f c0 54 7b 19 c0 c9 3d 17 c0
       -2.5613537 -2.7450056 -2.3981524 -2.363146
000020 01 c9 11 c0 81 89 12 c0 b8 73 19 c0 03 2e 0e c0
       -2.2778933 -2.2896426 -2.397688 -2.2215583
000030 2f 16 0c c0 67 da 02 c0 0f c7 f8 bf aa a2 05 c0
       -2.188854 -2.0445802 -1.9435748 -2.0880532
000040 c8 5a 07 c0 ae 46 23 c0 86 a2 01 c0 94 30 02 c0
       -2.1149158 -2.551189 -2.0255446 -2.034215
000050 0b b3 fa bf 14 4f 05 c0 b3 07 07 c0 eb ea 01 c0
       -1.958589 -2.0829515 -2.109845 -2.0299633
000060 39 5a 0c c0 ae 9e 09 c0 cf 7c 05 c0 fb 11 12 c0
       -2.1930068 -2.15031 -2.0857427 -2.2823474
000070 3e 4f 14 c0 e6 00 34 c0 0d c6 13 c0 56 21 18 c0
       -2.3173366 -2.8125548 -2.308963 -2.3770347
000080 98 37 09 c0 a5 97 14 c0 01 a3 11 c0 31 b9 0d c0
       -2.1440182 -2.3217556 -2.275574 -2.2144282
000090 c1 08 0f c0 ce cc 12 c0 9b 8f 0e c0 a1 2a 08 c0
       -2.2349093 -2.2937503 -2.227515 -2.1276019
0000a0 43 1b 20 c0 8e 79 31 c0 e3 63 0d c0 f7 c3 0b c0
       -2.501664 -2.773044 -2.2092216 -2.1838357
0000b0 7a 71 0f c0 3f 46 08 c0 6a f7 10 c0 bd 05 11 c0
       -2.241301 -2.1292875 -2.265101 -2.2659752
0000c0 aa af 1f c0 03 c5 14 c0 7a 02 19 c0 94 dc 1a c0
       -2.4950967 -2.3245246 -2.3907762 -2.419713
0000d0 ea 5e 1d c0 3b e0 32 c0 28 2a 16 c0 e0 fe 1d c0
       -2.458918 -2.794936 -2.346323 -2.4686813
0000e0 c9 a9 1d c0 d0 22 1d c0 47 3d 1e c0 ad 6c 1b c0
       -2.4634879 -2.4552498 -2.47249 -2.428508
0000f0 20 2e 20 40 e0 71 1e 40 ac 1f 1b 40 4e 57 21 40
       2.5028152 2.4757004 2.423808 2.5209537
000100 0f 57 24 40 05 4f 36 40 ea 64 1d 40 a3 f1 20 40
       2.5678136 2.848573 2.4592843 2.5147483
000110 cd 08 1f 40 76 56 23 40 09 84 27 40 86 77 1f 40
       2.4849122 2.5521522 2.6174338 2.4916701

fc2.bias f4 [6]
000000 42 7d 69 bf 9d 82 d7 3e d9 52 91 bf 86 02 a1 bc
       -0.91206753 0.42091838 -1.1353408 -0.019654524
000010 b4 ba a9 bf f7 1e b0 3f
       -1.3260102 1.375945

fc3.weight f4 [3, 6]
000000 10 de 1b c0 1b 39 13 c0 15 ec 23 c0 c5 d2 18 c0
       -2.4354286 -2.3003604 -2.5612843 -2.3878644
000010 d3 16 2d c0 d2 27 29 40 3a 21 c2 3c 8a ba 46 bf
       -2.704518 2.6430554 0.023697484 -0.77628386
000020 fb 97 63 3d a9 ab ba be c5 1f d8 3d ec ec f3 3b
       0.05556486 -0.3645909 0.105529346 0.007444015
000030 ed 94 29 be 10 66 a8 be 1e a3 a1 be 0c 47 da bd
       -0.16560717 -0.32890368 -0.3156976 -0.10658082
000040 a2 bd cf be bb c5 98 3e
       -0.40574366 0.29838356

fc3.bias f4 [3]
000000 2e 45 8f 3f b0 fd 8d 3f d8 8c 35 40
       1.1192987 1.1093044 2.8367214
