results/september.pt (torch, 3351 bytes, 6 tensors)

fc1.weight f4 [12, 18]
3.1443703 -0.29858303 -0.25833 -0.44291934 -0.18715778 0.50664866 0.32711044 0.4775414
-0.5349012 -0.1627921 -0.63198483 -0.43196008 1.8163035 -0.67408925 -0.4751723 -0.21917284
0.30422214 0.07576237 -8.473919 -0.4347375 -0.11820129 1.0468885 -0.78533936 0.8888106
0.038354427 0.8794145 0.98919094 1.3156435 -0.5874099 1.0548087 2.5593195 -0.6819317
-0.8197764 -0.533901 0.8619834 0.21862179 3.0665526 -0.14114502 -0.27779704 -0.4434619
-0.089019075 0.50815296 0.3495582 0.5374802 -0.47602966 -0.24129784 -0.52648807 -0.5208737
1.8736335 -0.5651693 -0.42645034 -0.19048952 0.17682227 0.044587217 3.0833812 -0.15576522
-0.25398442 -0.45780325 -0.1430242 0.4392267 0.3057214 0.46782032 -0.5558179 -0.097720966
-0.598452 -0.54518515 1.7777814 -0.56980425 -0.37957335 -0.20973246 0.21089828 -0.0031737562
3.1483161 -0.25189704 -0.3366394 -0.4961476 -0.1690884 0.5308781 0.26888192 0.39224154
-0.62610865 -0.29704866 -0.5901799 -0.51277 1.8932402 -0.8111019 -0.4798934 -0.15735072
0.28198174 0.03281449 3.1192238 -0.21966036 -0.2551646 -0.44585326 -0.1988042 0.54777265
0.2791413 0.41929588 -0.52272296 -0.22330697 -0.61313164 -0.45529017 1.8697972 -0.597346
-0.46366847 -0.1997893 0.197963 -0.0025389378 -3.069997 0.21244606 0.33876386 0.5132833
0.08551736 -0.43839303 -0.33173275 -0.51660556 0.5161689 0.22315323 0.55569696 0.46382105
-1.8786451 0.56959647 0.3447644 0.13007843 -0.22492652 -0.0032169882 3.056834 -0.25254667
-0.36985204 -0.5398723 -0.18542144 0.53410023 0.30307004 0.46362445 -0.58157533 -0.16635224
-0.5890568 -0.5441019 1.9051439 -0.66382146 -0.51022875 -0.2249224 0.29074454 0.03484632
3.160834 -0.31566188 -0.30992717 -0.52774835 -0.16927832 0.47045463 0.24042745 0.49130815
-0.5654445 -0.19502243 -0.5427203 -0.5782941 1.9025749 -0.76059794 -0.5312389 -0.19710526
0.300422 0.09630216 3.0253465 -0.20697923 -0.29739216 -0.5293568 -0.15838878 0.5129231
0.31479037 0.42880812 -0.6133307 -0.2912524 -0.51362807 -0.5794751 1.8325897 -0.6539163
-0.39540353 -0.16077666 0.27994615 0.025233341 6.277332 0.6468763 0.39125717 0.8624157
0.6532108 -1.8339474 -0.0010873745 -0.78757626 0.7882593 1.0825157 0.63087606 0.8052251
-1.8585249 0.68056226 -1.0344608 0.65203565 -0.62864405 -0.19872521 3.035227 -0.18777625
-0.29007632 -0.47854546 -0.19841513 0.47801942 0.24483801 0.40916643 -0.5533672 -0.22034875
-0.59160775 -0.5297255 1.8531026 -0.62064666 -0.46556446 -0.13621084 0.26178953 0.044439007
00000000: 5d3d 4940 e0df 98be d443 84be 53c6 e2be
00000010: 4aa6 3fbe bab3 013f 057b a73e 4e80 f43e
00000020: 49ef 08bf f9b2 26be c2c9 21bf df29 ddbe
00000030: a27c e83f 1d91 2cbf c949 f3be d86e 60be
00000040: 01c3 9b3e 4d29 9b3d 2c95 07c1 ea95 debe
00000050: 8513 f2bd 7100 863f 000c 49bf 1789 633f
00000060: 8819 1d3d 4f21 613f 9e3b 7d3f 0267 a83f
00000070: 7f60 16bf f903 873f e4cb 2340 1393 2ebf
00000080: dedc 51bf bcad 08bf f2aa 5c3f 64de 5f3e
00000090: 6642 4440 5288 10be 6a3b 8ebe 700d e3be
000000a0: a24f b6bd 5016 023f 4bf9 b23e 4d98 093f
000000b0: 29ba f3be c816 77be ecc7 06bf fb57 05bf
000000c0: 39d3 ef3f efae 10bf b357 dabe af0f 43be
000000d0: e610 353e 16a1 363d 1e56 4540 eb80 1fbe
000000e0: 3f0a 82be 3065 eabe f074 12be 52e2 e03e
000000f0: 8487 9c3e 2586 ef3e 154a 0ebf ee21 c8bd
00000100: 2634 19bf 4191 0bbf 578e e33f b1de 11bf
00000110: 7057 c2be 1bc4 56be b8f5 573e cbfe 4fbb
00000120: 037e 4940 a6f8 80be 005c acbe 0f07 febe
00000130: 8225 2dbe a1e7 073f e4aa 893e e2d3 c83e
00000140: a848 20bf c316 98be 0816 17bf e544 03bf
00000150: b255 f23f 60a4 4fbf 96b4 f5be 8c20 21be
00000160: e95f 903e 7d68 063d 5da1 4740 a5ee 60be
00000170: efa4 82be e146 e4be 5493 4bbe d43a 0c3f
00000180: 9ceb 8e3e f3ad d63e 2cd1 05bf 95aa 64be
00000190: 32f6 1cbf cb1b e9be 8455 ef3f abeb 18bf
000001a0: f465 edbe 9195 4cbe d0b6 4a3e 4f64 26bb
000001b0: d57a 44c0 768b 593e 7572 ad3e 8966 033f
000001c0: ba23 af3d 0d75 e0be e0d8 a9be 4340 04bf
000001d0: a523 043f 4882 643e 2842 0e3f f479 ed3e
000001e0: 7177 f0bf 13d1 113f f684 b03e 4833 053e
000001f0: 2353 66be 1bd4 52bb 2ba3 4340 cc4d 81be
00000200: 3f5d bdbe 1235 0abf 1edf 3dbe cbba 083f
00000210: ff2b 9b3e 2f60 ed3e 1fe2 14bf 3e58 2abe
00000220: 6dcc 16bf 434a 0bbf c1db f33f 34f0 29bf
00000230: 5a9e 02bf 0f52 66be 78dc 943e 04bb 0e3d
00000240: 1b4b 4a40 6f9e a1be c6ae 9ebe 841a 07bf
00000250: 4c57 2dbe 6edf f03e 9d32 763e be8c fb3e
00000260: f9c0 10bf f6b3 47be b8ef 0abf 150b 14bf
00000270: 9387 f33f 8cb6 42bf 46ff 07bf f6d5 49be
00000280: ead0 993e 113a c53d 479f 4140 5df2 53be
00000290: c943 98be ed83 07bf ab30 22be ee4e 033f
000002a0: 342c a13e bd8c db3e 3e03 1dbf 091f 95be
000002b0: 217d 03bf 7b58 14bf 4d92 ea3f 0f67 27bf
000002c0: 5572 cabe a3a2 24be 1a55 8f3e 27b6 ce3c
000002d0: e7df c840 af99 253f dc52 c83e 46c7 5c3f
000002e0: d338 273f cabe eabf 3c86 8eba 999e 49bf
000002f0: 5dcb 493f e08f 8a3f 1881 213f 3b23 4e3f
00000300: 25e4 edbf 5439 2e3f 3669 84bf cfeb 263f
00000310: d1ee 20bf 9f7e 4bbe 2941 4240 6b48 40be
00000320: e284 94be e903 f5be 562d 4bbe f6be f43e
00000330: d1b6 7a3e 437e d13e 79a9 0dbf 1aa3 61be
00000340: 9b73 17bf 179c 07bf 7732 ed3f b3e2 1ebf
00000350: 775e eebe db7a 0bbe 4709 863e ad05 363d

fc1.bias f4 [12]
0.94060576 0.8090605 1.0238725 0.9306073 0.9183455 0.94098973 -1.0173053 0.95336294
0.91962785 0.9287905 -0.64153135 0.9779188
00000000: 8acb 703f 971e 4f3f 410e 833f 483c 6e3f
00000010: b118 6b3f b4e4 703f 0f37 82bf 980f 743f
00000020: bb6c 6b3f 37c5 6d3f 663b 24bf e358 7a3f

fc2.weight f4 [6, 12]
-3.4657092 5.9845023 -3.0645983 -3.3830943 -3.3247178 -3.527108 3.1245399 -3.3647933
-3.4441786 -3.1674984 3.3269522 -3.281491 -2.2852457 5.1395526 -2.26071 -2.2610734
-2.215111 -2.3102913 2.230985 -2.2634397 -2.2163615 -2.1079085 11.740974 -2.3647625
2.2742522 -16.042997 2.0359924 2.1507657 2.2556696 2.2767754 -2.043543 2.228781
2.2756548 2.2453678 -10.145698 2.1990955 1.9644102 -15.270242 1.8975228 2.046757
2.0310874 2.047239 -1.8546538 1.9836366 2.0629058 1.9501257 -11.972074 2.0306885
-2.3776147 5.196019 -2.3445477 -2.2552938 -2.127107 -2.357465 2.2585504 -2.128401
-2.21579 -2.1509027 12.273709 -2.2505832 2.0052388 -13.396606 2.0867708 2.0696034
1.9030806 2.072572 -2.0937004 1.9921942 1.9260138 2.0636196 -12.958929 2.04331
00000000: 2ece 5dc0 0b81 bf40 6122 44c0 9e84 58c0
00000010: 2dc8 54c0 23bc 61c0 76f8 4740 c658 57c0
00000020: 6c6d 5cc0 4bb8 4ac0 c9ec 5440 f303 52c0
00000030: 7741 12c0 3777 a440 79af 10c0 6db5 10c0
00000040: 61c4 0dc0 d0db 13c0 75c8 0e40 32dc 10c0
00000050: ded8 0dc0 f9e7 06c0 08db 3b41 4558 17c0
00000060: 598d 1140 0f58 80c1 b34d 0240 25a6 0940
00000070: e45c 1040 b0b6 1140 69c9 02c0 59a4 0e40
00000080: 54a4 1140 1bb4 0f40 c754 22c1 fbbd 0c40
00000090: cb71 fb3f e952 74c1 07e2 f23f 11fe 0240
000000a0: 56fd 0140 f705 0340 4c65 edbf cee7 fd3f
000000b0: a606 0440 b89d f93f 9d8d 3fc1 cdf6 0140
000000c0: d72a 18c0 ca45 a640 120d 16c0 bc56 10c0
000000d0: 8522 08c0 b5e0 16c0 178c 1040 b937 08c0
000000e0: 81cf 0dc0 64a8 09c0 1d61 4441 8e09 10c0
000000f0: d555 0040 8058 56c1 a78d 0540 6274 0440
00000100: 2598 f33f 05a5 0440 30ff 05c0 3800 ff3f
00000110: 9f87 f63f 5812 0440 c657 4fc1 97c5 0240

fc2.bias f4 [6]
-0.07237129 -3.2477605 -0.34015033 0.5559109 -3.447283 2.2872064
00000000: 6637 94bd 4fdb 4fc0 2f28 aebe 2d50 0e3f
00000010: 49a0 5cc0 9761 1240

fc3.weight f4 [3, 6]
-3.628492 -4.639392 6.635788 6.9009824 -4.633384 6.6928415 0.66296107 1.4982901
0.25795037 0.026815629 1.5209024 -0.18863201 4.420338 -0.04358028 -2.0249808 -0.38425115
-0.2767357 1.7951837
00000000: 3739 68c0 e675 94c0 6058 d440 d9d4 dc40
00000010: af44 94c0 c22b d640 d1b7 293f f8c7 bf3f
00000020: 1212 843e 73ac db3c eeac c23f c028 41be
00000030: 6973 8d40 3c81 32bd 4999 01c0 91bc c4be
00000040: 4db0 8dbe 94c8 e53f

fc3.bias f4 [3]
2.010529 2.552985 14.3731985
00000000: 82ac 0040 1b64 2340 9ff8 6541
